assignment1/simple-2D-classifier/best-mlp.pth (torch, 4289 bytes, 9 tensors)

layers.0.weight f4 [16, 2]
00000000: db75 3cbf 3a61 80be cb5d 19be 74cd 083e
00000010: 0902 223f 485b dbbe ebbf ec3d a312 1e3d
00000020: c614 94bd 2e77 053e ba5b 153f ceb0 1c3e
00000030: 2c6d e03e 454e 30bf f1da 85be d69d 993e
00000040: a3b9 37bf 7dda 283f efc7 133f e5a8 493f
00000050: b06a 083f a774 97bd 4898 463f 8c3d 553e
00000060: db7c 3abd 3c15 ee3e ffe4 693d 5b6d 2dbf
00000070: a170 063f cc1f 2fbf 7972 24bf cabe 0b3e
-0.73617333 -0.25074178 -0.14977185 0.13359624 0.63284355 -0.4284308 0.11560043 0.038591992
-0.07230525 0.13033745 0.5834309 0.1530182 0.43833292 -0.6886943 -0.26143602 0.30003232
-0.71767634 0.65958387 0.5772695 0.7877334 0.5328779 -0.073952965 0.7757611 0.2082426
-0.045529228 0.46500576 0.057103153 -0.6774499 0.5251561 -0.68407893 -0.6423717 0.13646999

layers.0.bias f4 [16]
00000000: 36b9 27bf ecd4 e93f 98ae 7b3f d8c6 de3f
00000010: 7ce3 0140 76bc 573f c2a8 b7bf 0d54 6e3e
00000020: 551d b4bf 65b2 aabf 5a22 9ebf dcad 41bf
00000030: 2df6 71bf f3d2 09bf 7ec9 963d 4796 a8bf
-0.65516984 1.8268104 0.98313284 1.7404432 2.0295095 0.84271944 -1.4348376 0.2327425
-1.4071451 -1.3335692 -1.2354233 -0.75655913 -0.9451626 -0.5383751 0.0736265 -1.3170861

layers.2.weight f4 [1, 16]
00000000: 0ba7 e63e 7fbd b6be a180 6ebe a860 5bbf
00000010: 4c18 19bf 3238 39be 1487 053f 290c e0bd
00000020: 702c 9e3e 870a 173f 2755 163f fc5d c13e
00000030: 13d7 473f 93a1 983e eee4 083e 2471 fc3e
0.4504932 -0.3569145 -0.23291256 -0.8569436 -0.598027 -0.18087843 0.5215924 -0.10939819
0.30893278 0.5900044 0.5872368 0.37767017 0.7806255 0.2981077 0.1336858 0.4930507

exp_avg f4 [16, 2]
00000000: 023d af3c 9685 c03c f1a9 54bc 9938 c239
00000010: 05c2 993a f9b6 f7bb 19ce 9dbc eea0 51bc
00000020: a3e3 5bbc 84c0 11bc 8988 9a3b c052 ed3b
00000030: 7c4a 1f3c ebbc e53c 84d2 a0ba d4e8 3c3b
00000040: 545e b13b bb08 0cbc fc49 8ebc 489f 90bc
00000050: d3d2 9abc 55c5 95bb a617 34bc de6f 14bc
00000060: e266 f83b c9c9 fcbc deb4 363c b2d5 753c
00000070: d197 343b 2f2a d23b 3710 d03c 0070 9f3c
0.021391395 0.023501199 -0.01297997 0.00037044732 0.0011730796 -0.007559654 -0.019263314 -0.012794716
-0.013420972 -0.008895997 0.0047159833 0.0072425306 0.009722348 0.028044185 -0.001226977 0.00288253
0.005412856 -0.008547003 -0.017369263 -0.017654076 -0.018899357 -0.004570643 -0.010991966 -0.009059874
0.007580624 -0.030857937 0.011151521 0.015004562 0.002755631 0.00641372 0.025398357 0.019462585

exp_avg_sq f4 [16, 2]
00000000: 2378 943b a70c 923b 8ed5 153b 1b29 183b
00000010: 1fd0 e13a 4f38 f43a 8c88 8d3c 6b16 893c
00000020: fcd3 d53b 1a12 c73b 69c7 a53a 71ca b43a
00000030: 37f7 863b 375e a13b 2fad 813a 82d1 573a
00000040: f437 ba3a 0f02 9b3a 19f6 b33b 561c b73b
00000050: ba3d 653b 062a 073b 53e2 3a3b c94c 233b
00000060: 9046 6e3b d3cc b23b 221c ba3a 9631 ce3a
00000070: 86b2 4f3a 2c24 553a 6b05 753b 7cde 2e3b
0.004530923 0.0044570747 0.0022862884 0.002321786 0.0017228163 0.0018632504 0.017277025 0.016734323
0.0065255146 0.006075156 0.001264793 0.0013793242 0.004118826 0.0049245614 0.0009893532 0.0008232818
0.0014207349 0.0011826175 0.0054919836 0.0055880947 0.003497942 0.0020624413 0.0028516247 0.0024917594
0.0036357976 0.005456546 0.0014199058 0.001573133 0.00079230254 0.0008130695 0.0037387263 0.0026682904

exp_avg f4 [16]
00000000: 098c 0e3b 84b7 c1bb 86a8 1ebb 5612 4bbc
00000010: 5b5b 0dbc b21e 05bb b722 a0b9 0cdc 96ba
00000020: 642c e33a 9701 343b abdb e33a ffc9 e73a
00000030: 19cf 533b 3923 d63a 8899 173a 3f5f 6e3a
0.0021750948 -0.0059117693 -0.0024209335 -0.012394508 -0.008627738 -0.0020312485 -0.00030543443 -0.0011509671
0.0017331955 0.0027466768 0.0017384192 0.0017684101 0.0032319485 0.0016337401 0.0005783071 0.0009093172

exp_avg_sq f4 [16]
00000000: 9906 7f39 3fb8 3f39 b894 0439 8b80 a33a
00000010: f032 e839 8416 c938 de17 7b39 4d53 5e38
00000020: 16d7 9938 91b0 9f39 8627 0a39 c82d 2c39
00000030: 407b 4e39 d59a b038 0ee1 6938 9bed 1c39
0.00024321153 0.00018283816 0.00012643903 0.0012474222 0.0004428844 9.588621e-05 0.00023946117 5.3006504e-05
7.3356714e-05 0.00030458395 0.00013175429 0.00016420253 0.00019691605 8.421174e-05 5.5761127e-05 0.00014965834

exp_avg f4 [1, 16]
00000000: a069 51bd 9951 c93c 02d2 e2bb ac77 e73c
00000010: b919 f23c a112 42bc 6cf4 e3bc 9820 09bc
00000020: b186 1ebd 1675 3fbd 5355 a5bc 0476 febc
00000030: 60ce b9bc 51b7 0ebd 1ab1 b0bc f986 f5bc
-0.051126122 0.024575042 -0.0069220075 0.028255306 0.029553281 -0.011845262 -0.02782651 -0.008369587
-0.03870267 -0.04674252 -0.020182287 -0.031062134 -0.022681415 -0.034842793 -0.021568824 -0.029971587

exp_avg_sq f4 [1, 16]
00000000: 923e a43c b92f be3c 2677 233d 50f2 1f3c
00000010: f37d 7d3c b100 d73c d2ec 783c 8718 ff3b
00000020: d560 eb3c ccd2 b03c 63ae 353b 6622 a03c
00000030: 9363 a53a 1f37 713c a577 203d ff96 0a3c
0.020049367 0.023216115 0.03990855 0.009762362 0.015471923 0.026245447 0.015193181 0.0077849063
0.028732697 0.02158489 0.002772235 0.019547652 0.0012618176 0.014722615 0.039176602 0.008458852
