assignment4/mvs/checkpoints/model_000003.ckpt (torch, 608343 bytes, 127 tensors)

feature.model.0.weight f4 [3, 3, 3, 3]
0.13517307 -0.008015146 0.021278363 0.14407699 -0.09434867 0.18668094 -0.017097412 0.14514865
0.05243237 -0.020491216 0.074803255 0.029606828 0.072831765 -0.044752926 0.008547906 -0.033328347
0.031000843 -0.006683603 0.16683796 0.11124949 0.01703376 -0.04628014 0.07269601 0.041747488
0.01586461 0.11317989 0.19807123 0.09651992 -0.20265843 0.10401039 0.040418398 0.14707108
0.09204623 -0.18108493 -0.21270593 -0.13138422 0.1791369 -0.03680486 0.051933747 -0.07689006
0.17498504 -0.089371406 0.11801963 -0.026649306 -0.124937624 0.093644336 -0.112102024 0.06612093
-0.07337757 -0.06190425 -0.20515536 -0.1255628 0.048157964 -0.09486127 0.17687893 0.14654015
-0.048594233 -0.15838565 0.09302443 0.00915079 -0.1770554 0.069432706 0.044267405 0.18837108
-0.08858029 -0.02312694 0.011681689 0.04505789 -0.14862344 -0.13095608 0.10634932 -0.060620062
0.124912955 0.04903252 0.0888223 0.08500098 0.111780465 0.122340195 -0.14374276 0.119579524
-0.122563645
00000000: cf6a 0a3e f551 03bc f64f ae3c eb88 133e
00000010: e039 c1bd 4a29 3f3e df0f 8cbc d9a1 143e
00000020: 53c3 563d 32dd a7bc 7332 993d 058a f23c
00000030: d228 953d d84e 37bd 840c 0c3c 4e83 08bd
00000040: 7bf5 fd3c 2002 dbbb 92d7 2a3e c6d6 e33d
00000050: 628a 8b3c 3e90 3dbd a5e1 943d 6aff 2a3d
00000060: 80f6 813c dcca e73d 2fd3 4a3e 3cac c53d
00000070: b185 4fbe 6603 d53d c38d 253d cd99 163e
00000080: bc82 bc3d 546e 39be 95cf 59be 9689 06be
00000090: aa6f 373e b1c0 16bd 7bb8 543d 8978 9dbd
000000a0: 472f 333e 5b08 b7bd 47b4 f13d a54f dabc
000000b0: 4cdf ffbd 9ac8 bf3d bf95 e5bd 696a 873d
000000c0: fb46 96bd 508f 7dbd 3f14 52be 8993 00be
000000d0: 4941 453d a046 c2bd c01f 353e 9f0e 163e
000000e0: bf0a 47bd d92f 22be 9883 be3d 32ed 153c
000000f0: 034e 35be bc32 8e3d bd51 353d 59e4 403e
00000100: 9569 b5bd b574 bdbc 8e64 3f3c 9f8e 383d
00000110: be30 18be 5a19 06be accd d93d be4c 78bd
00000120: 5dd2 ff3d 53d6 483d 77e8 b53d fe14 ae3d
00000130: 28ed e43d 7f8d fa3d 4d31 13be 1ce6 f43d
00000140: a602 fbbd

feature.model.0.bias f4 [3]
-0.0801712 0.012482409 0.00072767294
00000000: cc30 a4bd 0583 4c3c 4ec1 3e3a

feature.model.1.weight f4 [3]
1.0064745 1.0956454 0.8895873
00000000: 28d4 803f 1c3e 8c3f febb 633f

feature.model.1.bias f4 [3]
-0.040376864 0.108650036 -0.04764837
00000000: 3662 25bd e983 de3d f02a 43bd

feature.model.1.running_mean f4 [3]
0.5217445 -0.20790194 0.19882464
00000000: 0c91 053f 3fe4 54be b098 4b3e

feature.model.1.running_var f4 [3]
0.31270656 0.12576446 0.08308649
00000000: 131b a03e 66c8 003e 4029 aa3d

feature.model.3.weight f4 [3, 3, 3, 3]
0.13517307 -0.008015146 0.021278363 0.14407699 -0.09434867 0.18668094 -0.017097412 0.14514865
0.05243237 -0.020491216 0.074803255 0.029606828 0.072831765 -0.044752926 0.008547906 -0.033328347
0.031000843 -0.006683603 0.16683796 0.11124949 0.01703376 -0.04628014 0.07269601 0.041747488
0.01586461 0.11317989 0.19807123 0.09651992 -0.20265843 0.10401039 0.040418398 0.14707108
0.09204623 -0.18108493 -0.21270593 -0.13138422 0.1791369 -0.03680486 0.051933747 -0.07689006
0.17498504 -0.089371406 0.11801963 -0.026649306 -0.124937624 0.093644336 -0.112102024 0.06612093
-0.07337757 -0.06190425 -0.20515536 -0.1255628 0.048157964 -0.09486127 0.17687893 0.14654015
-0.048594233 -0.15838565 0.09302443 0.00915079 -0.1770554 0.069432706 0.044267405 0.18837108
-0.08858029 -0.02312694 0.011681689 0.04505789 -0.14862344 -0.13095608 0.10634932 -0.060620062
0.124912955 0.04903252 0.0888223 0.08500098 0.111780465 0.122340195 -0.14374276 0.119579524
-0.122563645
00000000: cf6a 0a3e f551 03bc f64f ae3c eb88 133e
00000010: e039 c1bd 4a29 3f3e df0f 8cbc d9a1 143e
00000020: 53c3 563d 32dd a7bc 7332 993d 058a f23c
00000030: d228 953d d84e 37bd 840c 0c3c 4e83 08bd
00000040: 7bf5 fd3c 2002 dbbb 92d7 2a3e c6d6 e33d
00000050: 628a 8b3c 3e90 3dbd a5e1 943d 6aff 2a3d
00000060: 80f6 813c dcca e73d 2fd3 4a3e 3cac c53d
00000070: b185 4fbe 6603 d53d c38d 253d cd99 163e
00000080: bc82 bc3d 546e 39be 95cf 59be 9689 06be
00000090: aa6f 373e b1c0 16bd 7bb8 543d 8978 9dbd
000000a0: 472f 333e 5b08 b7bd 47b4 f13d a54f dabc
000000b0: 4cdf ffbd 9ac8 bf3d bf95 e5bd 696a 873d
000000c0: fb46 96bd 508f 7dbd 3f14 52be 8993 00be
000000d0: 4941 453d a046 c2bd c01f 353e 9f0e 163e
000000e0: bf0a 47bd d92f 22be 9883 be3d 32ed 153c
000000f0: 034e 35be bc32 8e3d bd51 353d 59e4 403e
00000100: 9569 b5bd b574 bdbc 8e64 3f3c 9f8e 383d
00000110: be30 18be 5a19 06be accd d93d be4c 78bd
00000120: 5dd2 ff3d 53d6 483d 77e8 b53d fe14 ae3d
00000130: 28ed e43d 7f8d fa3d 4d31 13be 1ce6 f43d
00000140: a602 fbbd

feature.model.3.bias f4 [3]
-0.0801712 0.012482409 0.00072767294
00000000: cc30 a4bd 0583 4c3c 4ec1 3e3a

feature.model.4.weight f4 [3]
1.0064745 1.0956454 0.8895873
00000000: 28d4 803f 1c3e 8c3f febb 633f

feature.model.4.bias f4 [3]
-0.040376864 0.108650036 -0.04764837
00000000: 3662 25bd e983 de3d f02a 43bd

feature.model.4.running_mean f4 [3]
0.5217445 -0.20790194 0.19882464
00000000: 0c91 053f 3fe4 54be b098 4b3e

feature.model.4.running_var f4 [3]
0.31270656 0.12576446 0.08308649
00000000: 131b a03e 66c8 003e 4029 aa3d

feature.model.6.weight f4 [16, 3, 5, 5]
0.0679787 -0.06564484 -0.10245509 0.08238717 -0.015357443 0.07276206 0.041718774 -0.08039815
0.030242322 0.028292509 -0.06047143 -0.042573325 0.044644006 0.023013342 -0.046676304 -0.018425407
0.11580879 -0.021066155 0.06438594 0.05210501 -0.05994902 -0.09206247 0.1164497 0.00849989
0.08012891 0.01991059 0.08047149 0.14570002 0.22555222 -0.12528433 -0.049577948 0.20061798
0.23372053 0.287635 -0.0466088 -0.11701198 -0.015455082 0.17094259 0.3132738 0.0835708
-0.052787736 -0.06365741 -0.051428787 0.15315486 0.115381144 -0.08370423 -0.16933566 -0.026573917
0.07638099 0.07615103 0.06347623 0.06235473 0.059425574 0.008177431 -0.100536205 -0.096925296
-0.0634678 -0.019664992 -0.07899447 0.031312004 0.035899863 -0.036250427 0.034570597 0.026076483
0.056944214 0.08238762 -0.041373648 0.10363265 -0.023883695 -0.014664963 -0.100342706 -0.07234441
-0.06920936 -0.05378935 0.0774977 -0.041577507 -0.07681941 0.046556983 0.025515864 0.049680915
-0.047906294 0.03398641 -0.033304516 -0.03614719 -0.11250668 -0.023392403 -0.009841477 0.06978541
0.024554254 0.009045686 0.14295684 0.1409012 0.11392946 0.0043806634 -0.08900968 0.114369854
0.003603491 0.01018139 -0.09806163 -0.047302824 -0.10089139 0.059581116 -0.13977039 -0.13443363
-0.03154186 -0.11112773 -0.010112455 -0.0942697 -0.088730134 -0.02712694 0.044721514 -0.111013204
0.02315109 0.045892388 0.10058321 -0.13567382 -0.028888004 -0.12119155 0.06316109 -0.05481741
0.02262254 -0.031628665 -0.032352928 -0.008705718 0.037255578 0.056017235 0.039262325 0.050604004
-0.101840004 0.06133696 0.11142946 0.13387464 0.09664018 -0.06158253 -0.061007507 0.12006717
-0.040606093 0.12054776 -0.063479416 -0.09599471 0.1068368 -0.0034480838 0.0153936185 0.12838748
0.08267881 0.15832569 0.05362977 -0.05356541 0.15007073 -0.03608271 -0.024011055 0.050327115
-0.06284303 0.085388295 0.081762634 -0.06517355 -0.07766326 0.00067812024 0.05323863 0.011088125
-0.03059195 0.013742721 -0.1013565 -0.07030002 -0.076463245 0.12051975 0.11103807 -0.03096124
0.0031231313 0.043873686 0.03212061 -0.045506362 0.071131855 0.05901432 -0.015136772 -0.17267151
-0.02816207 0.066901766 -0.04143604 0.09833927 -0.14657342 -0.07493278 0.102985196 0.035737775
0.22891036 -0.18685213 -0.022261644 0.0640297 0.14480928 0.17995454 -0.14650498 -0.027492814
-0.01785945 0.15772334 0.12930268 -0.16330169 -0.10622946 -0.0051277964 0.16224617 0.0728719
-0.011045935 -0.039418362 -0.08362307 0.108216666 0.005510796 0.04294882 0.016530655 -0.07155962
0.07043748 0.07789685 0.020320486 -0.061737224 -0.05400373 -0.004962982 -0.064308204 -0.05028325
-0.016270861 -0.037744366 0.02151779 -0.03360364 -0.0030113603 -0.049688198 -0.116523415 0.08321335
0.014148982 0.12842636 0.004460142 -0.0054393904 -0.10655586 -0.053025264 0.112575635 -0.08472875
-0.019476382 0.07307937 0.054524127 0.08663538 0.003642772 0.009336046 -0.019215008 -0.057139833
0.08203743 -0.018891767 -0.06087571 0.0121402545 -0.11398771 -0.007104126 0.06050297 0.03103584
0.060118347 -0.11843806 -0.08198606 -0.10882846 -0.12489989 -0.1270989 -0.028270606 -0.055219892
00000000: 6b38 8b3d cd70 86bd f9d3 d1bd 9bba a83d
00000010: c99d 7bbc 4604 953d 4ee1 2a3d c9a7 a4bd
00000020: bfbe f73c b1c5 e73c e4b0 77bd 5e61 2ebd
00000030: a2dc 363d 7a86 bc3c a72f 3fbd e1f0 96bc
00000040: 292d ed3d ee92 acbc c7dc 833d 106c 553d
00000050: 1b8d 75bd 408b bcbd 2e7d ee3d 1f43 0b3c
00000060: a01a a43d 891b a33c 3dce a43d 6332 153e
00000070: 29f7 663e 894a 00be 3f12 4bbd cd6e 4d3e
00000080: 6f54 6f3e e544 933e dee8 3ebd faa3 efbd
00000090: 5037 7dbc 930b 2f3e 6c65 a03e 2b27 ab3d
000000a0: f437 58bd d15e 82bd fea6 52bd a1d4 1c3e
000000b0: f34c ec3d 206d abbd 5466 2dbe 8bb1 d9bc
000000c0: a36d 9c3d 12f5 9b3d d3ff 813d ac67 7f3d
000000d0: 3b68 733d a2fa 053c ede5 cdbd c580 c6bd
000000e0: 68fb 81bd 7a18 a1bc dac7 a1bd 0441 003d
000000f0: bc0b 133d 547b 14bd e699 0d3d 599e d53c
00000100: 563e 693d d7ba a83d 6a77 29bd 5b3d d43d
00000110: bda7 c3bc 5045 70bc 7a80 cdbd 4e29 94bd
00000120: a3bd 8dbd 3952 5cbd 1db7 9e3d 2d4d 2abd
00000130: 7f53 9dbd 89b2 3e3d a506 d13c 377e 4b3d
00000140: 6439 44bd 5535 0b3d 516a 08bd 130f 14bd
00000150: e769 e6bd 6da1 bfbc 253e 21bc a7eb 8e3d
00000160: 0126 c93c 5b34 143c 4763 123e 6748 103e
00000170: d953 e93d ab8b 8f3b b54a b6bd be3a ea3d
00000180: 8c28 6c3b d8cf 263c 89d4 c8bd 9bc0 41bd
00000190: 25a0 cebd 540b 743d f81f 0fbe f8a8 09be
000001a0: 0a32 01bd ef96 e3bd b6ae 25bc 7910 c1bd
000001b0: 25b8 b5bd 5139 debc e82d 373d e45a e3bd
000001c0: 5ba7 bd3c a8f9 3b3d 92fe cd3d 14ee 0abe
000001d0: 89a6 ecbc 4633 f8bd 9a5a 813d 3888 60bd
000001e0: e852 b93c 0f8d 01bd 8184 04bd 6ea2 0ebc
000001f0: 4e99 183d 5472 653d 88d1 203d 2546 4f3d
00000200: 7e91 d0bd 773c 7b3d 2135 e43d 6f16 093e
00000210: 49eb c53d f73d 7cbd 02e3 79bd c7e5 f53d
00000220: 9352 26bd bee1 f63d 7f01 82bd e098 c4bd
00000230: 41cd da3d 3ff9 61bb 8435 7c3c 0278 033e
00000240: 8253 a93d 2120 223e e4aa 5b3d 6767 5bbd
00000250: 24ac 193e 77cb 13bd d5b2 c4bc ce23 4e3d
00000260: d9b3 80bd 0fe0 ae3d 2b73 a73d b679 85bd
00000270: ea0d 9fbd e1c3 313a c010 5a3d f8aa 353c
00000280: f89b fabc 2629 613c ff93 cfbd 75f9 8fbd
00000290: c398 9cbd 0fd3 f63d ed67 e33d 6da2 fdbc
000002a0: 73ad 4c3b e5b4 333d e790 033d e164 3abd
000002b0: 94ad 913d 00b9 713d 3900 78bc cdd0 30be
000002c0: 24b4 e6bc cb03 893d d6b8 29bd 1966 c93d
000002d0: 5817 16be 5b76 99bd e7e9 d23d c661 123d
000002e0: 7a67 6a3e 2a56 3fbe 0d5e b6bc 0122 833d
000002f0: e248 143e 0146 383e 6705 16be 9c38 e1bc
00000300: fb4d 92bc 3a82 213e ec67 043e 8f38 27be
00000310: d58e d9bd 1307 a8bb dc23 263e dd3d 953d
00000320: 02fa 34bc 2675 21bd 9242 abbd b3a0 dd3d
00000330: e893 b43b 1aeb 2f3d 4c6b 873c da8d 92bd
00000340: 8741 903d 6288 9f3d 2677 a63c 2ce0 7cbd
00000350: 0433 5dbd 83a0 a2bb 05b4 83bd cff5 4dbd
00000360: 784a 85bc d699 1abd 1446 b03c f8a3 09bd
00000370: 3e5a 45bb da85 4bbd d4a3 eebd c36b aa3d
00000380: 22d1 673c 3382 033e 6226 923b ea3c b2bb
00000390: f539 dabd 0531 59bd 0e8e e63d 4486 adbd
000003a0: ef8c 9fbc a3aa 953d b154 5f3d e46d b13d
000003b0: 93bb 6e3b 37f6 183c cb68 9dbc 750b 6abd
000003c0: 3d03 a83d e8c2 9abc cf58 79bd ebe7 463c
000003d0: 6372 e9bd bac9 e8bb f6d1 773d e03e fe3c
000003e0: a83e 763d a78f f2bd 4fe8 a7bd 75e1 debd
000003f0: 83cb ffbd 3726 02be c297 e7bc 412e 62bd

feature.model.6.bias f4 [16]
0.06448773 0.08237148 0.1114291 0.06971932 -0.057619583 -0.03648012 0.07616091 0.034091268
0.11906433 -0.03329876 0.017939491 -0.012803975 -0.12563215 3.426881e-05 0.042165995 -0.102477215
00000000: 2512 843d 61b2 a83d f134 e43d 01c9 8e3d
00000010: 8302 6cbd 2e6c 15bd 40fa 9b3d 49a3 0b3d
00000020: 00d8 f33d 4864 08bd d7f5 923c c3c7 51bc
00000030: b7a5 00be dbbb 0f38 40b6 2c3d 93df d1bd

feature.model.7.weight f4 [16]
1.1088029 0.97433645 1.0685675 0.866474 1.0101576 1.0530773 0.9864573 1.0437331
1.0348234 1.0613003 0.9981505 0.9495259 0.9959444 0.92793524 0.9769 0.886842
00000000: 41ed 8d3f 1d6e 793f d2c6 883f 3dd1 5d3f
00000010: d84c 813f 3dcb 863f 7788 7c3f 0c99 853f
00000020: 1875 843f b0d8 873f cb86 7f3f 2114 733f
00000030: 36f6 7e3f 2a8d 6d3f 1e16 7a3f 1408 633f

feature.model.7.bias f4 [16]
0.06675609 -0.08311607 -0.0056218095 -0.109597884 0.076369576 -0.022756118 -0.080429696 -0.07655511
-0.17741841 0.016356438 0.003226098 -0.028725546 0.032402672 -0.15343961 -0.051311567 -0.10366103
00000000: 6bb7 883d c238 aabd 2837 b8bb db74 e0bd
00000010: a767 9c3d 0a6b babc 53b8 a4bd edc8 9cbd
00000020: 2cad 35be f0fd 853c f16c 533b d651 ebbc
00000030: aab8 043d 461f 1dbe 142c 52bd 3c4c d4bd

feature.model.7.running_mean f4 [16]
0.8433538 0.046505403 0.2433284 0.0026597122 -0.09938579 0.46248665 0.16623716 0.24123795
1.1761144 0.558592 -0.14253926 -0.35135767 -1.0100366 0.9979879 0.80507636 -0.65585476
00000000: 09e6 573f 737c 3e3d 152b 793e 914e 2e3b
00000010: c78a cbbd 0dcb ec3e 133a 2a3e 1507 773e
00000020: eb8a 963f e3ff 0e3f d0f5 11be 27e5 b3be
00000030: e148 81bf 237c 7f3f 7c19 4e3f 19e6 27bf

feature.model.7.running_var f4 [16]
0.33116975 1.0345169 0.068339325 0.084946215 0.10253585 0.7386719 0.20283212 0.80510026
1.8455518 0.53880596 0.12977815 0.74121696 0.7940238 2.0671432 1.2403945 0.24987711
00000000: 158f a93e 0d6b 843f 7df5 8b3d 48f8 ad3d
00000010: 51fe d13d 9a19 3d3f 39b3 4f3e 0d1b 4e3f
00000020: 0b3b ec3f 30ef 093f 90e4 043e 65c0 3d3f
00000030: 2545 4b3f 134c 0440 3fc5 9e3f c9df 7f3e

feature.model.9.weight f4 [16, 16, 3, 3]
-0.023237763 -0.020227462 0.0006190057 0.042183097 0.021703884 0.018404085 -0.01402001 0.04752745
-0.031689044 0.0015909709 -0.051072255 -0.08289542 -0.039641228 0.012843269 -0.021108149 -0.06324883
-0.046001915 0.009315582 -0.0050471937 -0.08147252 -0.070511445 -0.00026698728 -0.012182947 0.072236
-0.024507727 0.061109457 -0.06823756 -0.11558986 -0.04343172 -0.06457972 -0.05233876 -0.00976617
-0.078666955 0.023594173 -0.0821142 0.044628695 -0.0053289286 -0.04873846 -0.110081285 -0.0066092783
-0.06787183 0.05591165 -0.07668731 -0.033713803 -0.054014288 -0.054477513 -0.05403736 -0.037475884
0.03238889 0.030668272 0.027570829 0.01719673 -0.021313328 -0.021108095 0.09814374 0.04994564
-0.02122964 0.084130615 0.064125374 0.0486133 0.0112029165 0.061209284 -0.04391457 0.09320357
0.17168194 0.06617749 0.058121786 0.122012906 0.14704736 -0.06038561 -0.023529783 0.0011585314
-0.0574513 0.021561395 0.08349045 0.124997154 0.11091666 0.028848728 0.059392516 0.11124807
0.05736617 -0.0065865265 -0.01936569 0.020400712 0.017088102 -0.03944237 -0.03828154 0.0871656
0.08377715 -0.033697065 -0.005546764 -0.028747471 -0.003843803 0.07442918 -0.06197675 0.07758989
-0.08328767 -0.044091567 0.020586109 0.005136484 0.003983363 -0.02541253 -0.023957718 -0.03425276
-0.046339374 -0.043895964 0.09325999 -0.03894395 -0.12502648 0.01628706 -0.0009614171 0.00083180366
-0.12551163 -0.11620676 -0.11866802 -0.089060165 -0.040890776 0.0630355 0.110600315 -0.004721136
0.05782956 0.0017718652 0.06634165 0.014900561 0.024286643 0.03367249 -0.03394154 0.04702188
0.011890379 0.06710267 0.032878295 -0.034987215 0.05015465 0.01374352 0.087314 0.006646724
0.093868196 -0.04755617 0.03262685 -0.07555271 0.023703601 -0.016087249 -0.0036546474 -0.13611199
-0.063855425 0.072021864 -0.034868244 0.042365912 -0.019805564 -0.020915486 -0.049680248 0.02278029
0.009031536 0.021957321 -0.07776218 0.01123936 -0.003921223 -0.18988375 -0.014351358 -0.12316124
-0.050403472 0.05285159 0.031147229 0.06416376 -0.0817656 -0.07568632 0.004247976 0.019069457
-0.14052576 -0.07634035 -0.023531051 -0.00012315041 0.0697533 0.03321737 0.061578438 -0.06551515
0.040266465 -0.084775984 -0.12032272 -0.053068746 0.04135657 0.17050187 0.1204625 -0.13504317
0.0042439867 0.06147879 -0.16397138 -0.21348771 -0.09047287 -0.01605239 -0.031260103 -0.009745541
0.007863095 0.056808636 -0.005648835 0.03644829 0.044707023 -0.06689527 0.10042743 0.053668484
-0.007442132 0.016294533 -0.00565296 -0.088951506 -0.044259913 -0.10683575 -0.13368054 0.027347693
0.08924048 0.025356863 -0.055451166 0.051355917 -0.04738907 0.03061357 0.09554491 -0.04630067
0.08123625 0.1015956 -0.030352054 0.058270805 0.08055442 0.010587978 0.04818936 0.072005965
-0.075027026 0.13157919 0.08624541 0.0943651 0.10776887 0.02331034 0.030299954 -0.049454466
-0.07904438 -0.11716392 0.079428814 -0.05460325 -0.1554839 0.07359904 -0.03826411 -0.09205016
0.04702666 -0.020064117 -0.051661097 -0.014792041 -0.06991576 0.070829734 -0.04784966 -0.11487549
0.07555089 0.11413195 -0.09946615 0.08756189 -0.033316907 -0.06918661 -0.07825835 -0.021462925
00000000: 1f5d bebc 10b4 a5bc c544 223a 2fc8 2c3d
00000010: 58cc b13c 2ac4 963c 2fb4 65bc 25ac 423d
00000020: 5fcc 01bd 2088 d03a 2431 51bd 13c5 a9bd
00000030: d75e 22bd 936c 523c ffea acbc 9a88 81bd
00000040: 816c 3cbd 62a0 183c ee62 a5bb 11db a6bd
00000050: 4e68 90bd 6dfa 8bb9 fc9a 47bc 78f0 933d
00000060: 6ec4 c8bc e94d 7a3d 22c0 8bbd 60ba ecbd
00000070: 76e5 31bd 5f42 84bd 2b61 56bd 4902 20bc
00000080: 241c a1bd 9148 c13c 7d2b a8bd 94cc 363d
00000090: 4b9e aebb fba1 47bd 4c72 e1bd a592 d8bb
000000a0: 6300 8bbd 9d03 653d 3d0e 9dbd 7c17 0abd
000000b0: 163e 5dbd d023 5fbd 4756 5dbd 5080 19bd
000000c0: 36aa 043d 073c fb3c 38dc e13c 28e0 8c3c
000000d0: 4a99 aebc e2ea acbc 96ff c83d cd93 4c3d
000000e0: c8e9 adbc ac4c ac3d 2a54 833d bd1e 473d
000000f0: 708c 373c 96b6 7a3d c4df 33bd 83e1 be3d
00000100: 64cd 2f3e 1088 873d 1c11 6e3d e7e1 f93d
00000110: 9593 163e e756 77bd 88c1 c0bc ddd9 973a
00000120: 0e52 6bbd 86a1 b03c 0bfd aa3d 82fe ff3d
00000130: 4628 e33d 2b54 ec3c 9145 733d 07d6 e33d
00000140: caf8 6a3d cad3 d7bb cca4 9ebc 651f a73c
00000150: 59fc 8b3c 538e 21bd 1bcd 1cbd e183 b23d
00000160: 5b93 ab3d ef05 0abd a1c1 b5bb d17f ebbc
00000170: 50e8 7bbb 536e 983d 55db 7dbd 73e7 9e3d
00000180: ba92 aabd 5c99 34bd 33a4 a83c f34f a83b
00000190: df86 823b f02d d0bc fa42 c4bc 9f4c 0cbd
000001a0: 5bce 3dbd 41cc 33bd 18ff be3d b183 1fbd
000001b0: f106 00be 716c 853c 9c07 7cba 660d 5a3a
000001c0: 1f86 00be cffd edbd 3808 f3bd 2d65 b6bd
000001d0: 167d 27bd c218 813d 6b82 e23d c2b3 9abb
000001e0: b0de 6c3d ee3d e83a 22de 873d 7c21 743c
000001f0: c8f4 c63c 2aec 093d 4906 0bbd 049a 403d
00000200: ddcf 423c 206d 893d 64ab 063d c14e 0fbd
00000210: f66e 4d3d 802c 613c afd1 b23d c3cc d93b
00000220: f83d c03d 42ca 42bd bba3 053d 61bb 9abd
00000230: 0e2e c23c 68c9 83bc cf82 6fbb f160 0bbe
00000240: a2c6 82bd 3380 933d 01d2 0ebd e187 2d3d
00000250: 473f a2bc f456 abbc 847d 4bbd bb9d ba3c
00000260: 02f9 133c d7df b33c c741 9fbd 4b25 383c
00000270: 9a7d 80bb e370 42be f521 6bbc f63b fcbd
00000280: df73 4ebd e97a 583d 7928 ff3c 4a68 833d
00000290: b974 a7bd 6e01 9bbd 9b32 8b3b 8d37 9c3c
000002a0: fce5 0fbe 5458 9cbd 31c4 c0bc f021 01b9
000002b0: d1da 8e3d f00e 083d ac39 7c3d cf2c 86bd
000002c0: 73ee 243d 089f adbd c26b f6bd 9d5e 59bd
000002d0: 8265 293d 0b98 2e3e 0bb5 f63d c248 0abe
000002e0: 2411 8b3b 2fd1 7b3d 1de8 27be 869c 5abe
000002f0: d749 b9bd 4d80 83bc 980a 00bd c3ab 1fbc
00000300: 36d4 003c 2cb0 683d dd19 b9bb cd4a 153d
00000310: b61e 373d 6300 89bd e5ac cd3d 7cd3 5b3d
00000320: 21dd f3bb 1d7c 853c 773c b9bb 352c b6bd
00000330: e249 35bd b4cc dabd 8de3 08be 4508 e03c
00000340: b6c3 b63d 32b9 cf3c c320 63bd 955a 523d
00000350: 0b1b 42bd 4fc9 fa3c 0dad c33d c5a5 3dbd
00000360: 315f a63d 5b11 d03d dfa4 f8bc 5ead 6e3d
00000370: b7f9 a43d 3379 2d3c 3562 453d dd77 933d
00000380: c5a7 99bd b2bc 063e 6fa1 b03d 7d42 c13d
00000390: edb5 dc3d 53f5 be3c 9c37 f83c c490 4abd
000003a0: 05e2 a1bd a3f3 efbd 93ab a23d a8a7 5fbd
000003b0: 2c37 1fbe 18bb 963d d4ba 1cbd cb84 bcbd
000003c0: 079f 403d 815d a4bc 969a 53bd 515a 72bc
000003d0: fe2f 8fbd 2e0f 913d 01fe 43bd d743 ebbd
000003e0: 6dba 9a3d 03be e93d e9b4 cbbd a653 b33d
000003f0: 4f77 08bd b6b1 8dbd ea45 a0bd 04d3 afbc

feature.model.9.bias f4 [16]
-0.042529598 -0.083107255 -0.032724045 0.06408363 -0.12938516 -0.017487029 0.011923486 0.0087790685
0.13072164 0.13311054 -0.13161336 -0.017725032 -0.041086823 -0.10835988 0.029923376 0.043815456
00000000: 8433 2ebd 2334 aabd a609 06bd 473e 833d
00000010: 8b7d 04be f540 8fbc ba5a 433c 15d6 0f3c
00000020: e5db 053e 214e 083e a7c5 06be 1634 91bc
00000030: a84a 28bd c9eb ddbd de21 f53c d677 333d

feature.model.10.weight f4 [16]
1.0637424 1.0883696 0.9456297 0.98921627 1.0001236 0.8751179 0.9799627 1.1048476
0.9966942 0.9042652 1.1320404 1.0929401 0.9437541 0.9589047 0.9362959 0.9168795
00000000: b628 883f b24f 8b3f ca14 723f 473d 7d3f
00000010: 0d04 803f ba07 603f d6de 7a3f a56b 8d3f
00000020: 5a27 7f3f ed7d 673f b3e6 903f 76e5 8b3f
00000030: de99 713f c77a 753f 17b1 6f3f 9db8 6a3f

feature.model.10.bias f4 [16]
-0.071128145 0.14589742 -0.02481257 -0.018395169 -0.05434253 -0.11552957 -0.0024829686 0.058439422
0.005306298 -0.15258916 0.04687335 -0.0073782746 -0.13723162 -0.07256722 -0.011845329 -0.11437166
00000000: a2ab 91bd 2266 153e bb43 cbbc 77b1 96bc
00000010: 4696 5ebd c49a ecbd 4db9 22bb 2d5e 6f3d
00000020: 74e0 ad3b 5540 1cbe 45fe 3f3d 74c5 f1bb
00000030: 7286 0cbe 1f9e 94bd e912 42bc b03b eabd

feature.model.10.running_mean f4 [16]
0.03469634 -0.42852807 -0.10905012 0.23197302 -0.54892665 -0.022535188 -0.20575786 0.21402612
-0.09910628 0.70566213 -0.62191445 -0.19435993 0.06286502 -0.2483203 0.39265478 0.3526588
00000000: c01d 0e3d 0868 dbbe ab55 dfbd 568a 6d3e
00000010: 7586 0cbf b79b b8bc 30b2 52be aa29 5b3e
00000020: 3cf8 cabd 46a6 343f c935 1fbf 4a06 47be
00000030: 60bf 803d ad47 7ebe 0c0a c93e b28f b43e

feature.model.10.running_var f4 [16]
0.98096174 0.34000084 1.4664145 0.2576862 0.37921113 0.9610607 0.28668717 0.29164562
0.7154639 1.8814479 0.3894889 0.21078406 0.63700867 1.4257244 1.0924585 2.3453896
00000000: 4f20 7b3f 9714 ae3e 78b3 bb3f 72ef 833e
00000010: f627 c23e 1308 763f a9c8 923e 9352 953e
00000020: a428 373f 49d3 f03f 176b c73e c7d7 573e
00000030: 0013 233f 237e b63f aed5 8b3f dd1a 1640

feature.model.12.weight f4 [16, 16, 3, 3]
-0.023237763 -0.020227462 0.0006190057 0.042183097 0.021703884 0.018404085 -0.01402001 0.04752745
-0.031689044 0.0015909709 -0.051072255 -0.08289542 -0.039641228 0.012843269 -0.021108149 -0.06324883
-0.046001915 0.009315582 -0.0050471937 -0.08147252 -0.070511445 -0.00026698728 -0.012182947 0.072236
-0.024507727 0.061109457 -0.06823756 -0.11558986 -0.04343172 -0.06457972 -0.05233876 -0.00976617
-0.078666955 0.023594173 -0.0821142 0.044628695 -0.0053289286 -0.04873846 -0.110081285 -0.0066092783
-0.06787183 0.05591165 -0.07668731 -0.033713803 -0.054014288 -0.054477513 -0.05403736 -0.037475884
0.03238889 0.030668272 0.027570829 0.01719673 -0.021313328 -0.021108095 0.09814374 0.04994564
-0.02122964 0.084130615 0.064125374 0.0486133 0.0112029165 0.061209284 -0.04391457 0.09320357
0.17168194 0.06617749 0.058121786 0.122012906 0.14704736 -0.06038561 -0.023529783 0.0011585314
-0.0574513 0.021561395 0.08349045 0.124997154 0.11091666 0.028848728 0.059392516 0.11124807
0.05736617 -0.0065865265 -0.01936569 0.020400712 0.017088102 -0.03944237 -0.03828154 0.0871656
0.08377715 -0.033697065 -0.005546764 -0.028747471 -0.003843803 0.07442918 -0.06197675 0.07758989
-0.08328767 -0.044091567 0.020586109 0.005136484 0.003983363 -0.02541253 -0.023957718 -0.03425276
-0.046339374 -0.043895964 0.09325999 -0.03894395 -0.12502648 0.01628706 -0.0009614171 0.00083180366
-0.12551163 -0.11620676 -0.11866802 -0.089060165 -0.040890776 0.0630355 0.110600315 -0.004721136
0.05782956 0.0017718652 0.06634165 0.014900561 0.024286643 0.03367249 -0.03394154 0.04702188
0.011890379 0.06710267 0.032878295 -0.034987215 0.05015465 0.01374352 0.087314 0.006646724
0.093868196 -0.04755617 0.03262685 -0.07555271 0.023703601 -0.016087249 -0.0036546474 -0.13611199
-0.063855425 0.072021864 -0.034868244 0.042365912 -0.019805564 -0.020915486 -0.049680248 0.02278029
0.009031536 0.021957321 -0.07776218 0.01123936 -0.003921223 -0.18988375 -0.014351358 -0.12316124
-0.050403472 0.05285159 0.031147229 0.06416376 -0.0817656 -0.07568632 0.004247976 0.019069457
-0.14052576 -0.07634035 -0.023531051 -0.00012315041 0.0697533 0.03321737 0.061578438 -0.06551515
0.040266465 -0.084775984 -0.12032272 -0.053068746 0.04135657 0.17050187 0.1204625 -0.13504317
0.0042439867 0.06147879 -0.16397138 -0.21348771 -0.09047287 -0.01605239 -0.031260103 -0.009745541
0.007863095 0.056808636 -0.005648835 0.03644829 0.044707023 -0.06689527 0.10042743 0.053668484
-0.007442132 0.016294533 -0.00565296 -0.088951506 -0.044259913 -0.10683575 -0.13368054 0.027347693
0.08924048 0.025356863 -0.055451166 0.051355917 -0.04738907 0.03061357 0.09554491 -0.04630067
0.08123625 0.1015956 -0.030352054 0.058270805 0.08055442 0.010587978 0.04818936 0.072005965
-0.075027026 0.13157919 0.08624541 0.0943651 0.10776887 0.02331034 0.030299954 -0.049454466
-0.07904438 -0.11716392 0.079428814 -0.05460325 -0.1554839 0.07359904 -0.03826411 -0.09205016
0.04702666 -0.020064117 -0.051661097 -0.014792041 -0.06991576 0.070829734 -0.04784966 -0.11487549
0.07555089 0.11413195 -0.09946615 0.08756189 -0.033316907 -0.06918661 -0.07825835 -0.021462925
00000000: 1f5d bebc 10b4 a5bc c544 223a 2fc8 2c3d
00000010: 58cc b13c 2ac4 963c 2fb4 65bc 25ac 423d
00000020: 5fcc 01bd 2088 d03a 2431 51bd 13c5 a9bd
00000030: d75e 22bd 936c 523c ffea acbc 9a88 81bd
00000040: 816c 3cbd 62a0 183c ee62 a5bb 11db a6bd
00000050: 4e68 90bd 6dfa 8bb9 fc9a 47bc 78f0 933d
00000060: 6ec4 c8bc e94d 7a3d 22c0 8bbd 60ba ecbd
00000070: 76e5 31bd 5f42 84bd 2b61 56bd 4902 20bc
00000080: 241c a1bd 9148 c13c 7d2b a8bd 94cc 363d
00000090: 4b9e aebb fba1 47bd 4c72 e1bd a592 d8bb
000000a0: 6300 8bbd 9d03 653d 3d0e 9dbd 7c17 0abd
000000b0: 163e 5dbd d023 5fbd 4756 5dbd 5080 19bd
000000c0: 36aa 043d 073c fb3c 38dc e13c 28e0 8c3c
000000d0: 4a99 aebc e2ea acbc 96ff c83d cd93 4c3d
000000e0: c8e9 adbc ac4c ac3d 2a54 833d bd1e 473d
000000f0: 708c 373c 96b6 7a3d c4df 33bd 83e1 be3d
00000100: 64cd 2f3e 1088 873d 1c11 6e3d e7e1 f93d
00000110: 9593 163e e756 77bd 88c1 c0bc ddd9 973a
00000120: 0e52 6bbd 86a1 b03c 0bfd aa3d 82fe ff3d
00000130: 4628 e33d 2b54 ec3c 9145 733d 07d6 e33d
00000140: caf8 6a3d cad3 d7bb cca4 9ebc 651f a73c
00000150: 59fc 8b3c 538e 21bd 1bcd 1cbd e183 b23d
00000160: 5b93 ab3d ef05 0abd a1c1 b5bb d17f ebbc
00000170: 50e8 7bbb 536e 983d 55db 7dbd 73e7 9e3d
00000180: ba92 aabd 5c99 34bd 33a4 a83c f34f a83b
00000190: df86 823b f02d d0bc fa42 c4bc 9f4c 0cbd
000001a0: 5bce 3dbd 41cc 33bd 18ff be3d b183 1fbd
000001b0: f106 00be 716c 853c 9c07 7cba 660d 5a3a
000001c0: 1f86 00be cffd edbd 3808 f3bd 2d65 b6bd
000001d0: 167d 27bd c218 813d 6b82 e23d c2b3 9abb
000001e0: b0de 6c3d ee3d e83a 22de 873d 7c21 743c
000001f0: c8f4 c63c 2aec 093d 4906 0bbd 049a 403d
00000200: ddcf 423c 206d 893d 64ab 063d c14e 0fbd
00000210: f66e 4d3d 802c 613c afd1 b23d c3cc d93b
00000220: f83d c03d 42ca 42bd bba3 053d 61bb 9abd
00000230: 0e2e c23c 68c9 83bc cf82 6fbb f160 0bbe
00000240: a2c6 82bd 3380 933d 01d2 0ebd e187 2d3d
00000250: 473f a2bc f456 abbc 847d 4bbd bb9d ba3c
00000260: 02f9 133c d7df b33c c741 9fbd 4b25 383c
00000270: 9a7d 80bb e370 42be f521 6bbc f63b fcbd
00000280: df73 4ebd e97a 583d 7928 ff3c 4a68 833d
00000290: b974 a7bd 6e01 9bbd 9b32 8b3b 8d37 9c3c
000002a0: fce5 0fbe 5458 9cbd 31c4 c0bc f021 01b9
000002b0: d1da 8e3d f00e 083d ac39 7c3d cf2c 86bd
000002c0: 73ee 243d 089f adbd c26b f6bd 9d5e 59bd
000002d0: 8265 293d 0b98 2e3e 0bb5 f63d c248 0abe
000002e0: 2411 8b3b 2fd1 7b3d 1de8 27be 869c 5abe
000002f0: d749 b9bd 4d80 83bc 980a 00bd c3ab 1fbc
00000300: 36d4 003c 2cb0 683d dd19 b9bb cd4a 153d
00000310: b61e 373d 6300 89bd e5ac cd3d 7cd3 5b3d
00000320: 21dd f3bb 1d7c 853c 773c b9bb 352c b6bd
00000330: e249 35bd b4cc dabd 8de3 08be 4508 e03c
00000340: b6c3 b63d 32b9 cf3c c320 63bd 955a 523d
00000350: 0b1b 42bd 4fc9 fa3c 0dad c33d c5a5 3dbd
00000360: 315f a63d 5b11 d03d dfa4 f8bc 5ead 6e3d
00000370: b7f9 a43d 3379 2d3c 3562 453d dd77 933d
00000380: c5a7 99bd b2bc 063e 6fa1 b03d 7d42 c13d
00000390: edb5 dc3d 53f5 be3c 9c37 f83c c490 4abd
000003a0: 05e2 a1bd a3f3 efbd 93ab a23d a8a7 5fbd
000003b0: 2c37 1fbe 18bb 963d d4ba 1cbd cb84 bcbd
000003c0: 079f 403d 815d a4bc 969a 53bd 515a 72bc
000003d0: fe2f 8fbd 2e0f 913d 01fe 43bd d743 ebbd
000003e0: 6dba 9a3d 03be e93d e9b4 cbbd a653 b33d
000003f0: 4f77 08bd b6b1 8dbd ea45 a0bd 04d3 afbc

feature.model.12.bias f4 [16]
-0.042529598 -0.083107255 -0.032724045 0.06408363 -0.12938516 -0.017487029 0.011923486 0.0087790685
0.13072164 0.13311054 -0.13161336 -0.017725032 -0.041086823 -0.10835988 0.029923376 0.043815456
00000000: 8433 2ebd 2334 aabd a609 06bd 473e 833d
00000010: 8b7d 04be f540 8fbc ba5a 433c 15d6 0f3c
00000020: e5db 053e 214e 083e a7c5 06be 1634 91bc
00000030: a84a 28bd c9eb ddbd de21 f53c d677 333d

feature.model.13.weight f4 [16]
1.0637424 1.0883696 0.9456297 0.98921627 1.0001236 0.8751179 0.9799627 1.1048476
0.9966942 0.9042652 1.1320404 1.0929401 0.9437541 0.9589047 0.9362959 0.9168795
00000000: b628 883f b24f 8b3f ca14 723f 473d 7d3f
00000010: 0d04 803f ba07 603f d6de 7a3f a56b 8d3f
00000020: 5a27 7f3f ed7d 673f b3e6 903f 76e5 8b3f
00000030: de99 713f c77a 753f 17b1 6f3f 9db8 6a3f

feature.model.13.bias f4 [16]
-0.071128145 0.14589742 -0.02481257 -0.018395169 -0.05434253 -0.11552957 -0.0024829686 0.058439422
0.005306298 -0.15258916 0.04687335 -0.0073782746 -0.13723162 -0.07256722 -0.011845329 -0.11437166
00000000: a2ab 91bd 2266 153e bb43 cbbc 77b1 96bc
00000010: 4696 5ebd c49a ecbd 4db9 22bb 2d5e 6f3d
00000020: 74e0 ad3b 5540 1cbe 45fe 3f3d 74c5 f1bb
00000030: 7286 0cbe 1f9e 94bd e912 42bc b03b eabd

feature.model.13.running_mean f4 [16]
0.03469634 -0.42852807 -0.10905012 0.23197302 -0.54892665 -0.022535188 -0.20575786 0.21402612
-0.09910628 0.70566213 -0.62191445 -0.19435993 0.06286502 -0.2483203 0.39265478 0.3526588
00000000: c01d 0e3d 0868 dbbe ab55 dfbd 568a 6d3e
00000010: 7586 0cbf b79b b8bc 30b2 52be aa29 5b3e
00000020: 3cf8 cabd 46a6 343f c935 1fbf 4a06 47be
00000030: 60bf 803d ad47 7ebe 0c0a c93e b28f b43e

feature.model.13.running_var f4 [16]
0.98096174 0.34000084 1.4664145 0.2576862 0.37921113 0.9610607 0.28668717 0.29164562
0.7154639 1.8814479 0.3894889 0.21078406 0.63700867 1.4257244 1.0924585 2.3453896
00000000: 4f20 7b3f 9714 ae3e 78b3 bb3f 72ef 833e
00000010: f627 c23e 1308 763f a9c8 923e 9352 953e
00000020: a428 373f 49d3 f03f 176b c73e c7d7 573e
00000030: 0013 233f 237e b63f aed5 8b3f dd1a 1640

feature.model.15.weight f4 [32, 16, 5, 5]
0.046771906 -0.030439572 -0.016188515 0.022437163 -0.026739791 0.031096207 -0.009435046 -0.0021181158
0.007949826 0.025782784 -0.01176367 -0.0547 0.025643105 -0.03652898 0.0012390771 -0.079725586
-0.049176984 0.013492949 -0.007570553 0.0049043735 -0.05563249 -0.078251325 0.008503806 -0.048923388
0.035351902 -0.022809705 0.07460696 0.009905473 -0.02652041 0.05602343 0.03783873 -0.0021033362
-0.027710257 -0.011908983 0.011828254 0.031393703 -0.0064740637 0.031264223 0.058814343 0.043118197
-0.023085285 0.06605039 -0.009821387 0.026133811 0.002248835 0.020518137 -0.024901532 0.042071752
-0.0033211482 0.012041315 -0.0148339225 0.04355155 0.034340225 -0.02621075 0.03827102 -0.0048010307
-0.013726512 -0.03481683 -0.0097596245 0.06098097 -0.025965368 0.04053124 -0.013975269 -0.03711703
-0.018108606 0.019419825 0.028845595 0.015125958 0.02160124 -0.010493674 -0.004113567 0.013649028
-0.0028543242 0.045238502 0.047228407 0.06127293 0.083749 -0.0033105898 0.017785074 0.05751603
0.06197838 0.065961905 0.068516545 0.044010244 0.023507906 0.004563592 0.04502957 0.06924158
0.08343943 0.011027717 0.03434953 0.085663565 0.055089515 0.08537617 0.061996598 -0.0069947434
0.03284874 0.07784086 0.043397028 0.027891053 -0.020127583 -0.039477866 -0.0060430774 0.0074104583
-0.007918552 -0.031801865 -0.017831253 0.052317996 0.05071311 -0.0135239065 -0.022569647 0.011300125
-0.008258272 -0.032813776 -0.021675738 0.04149477 -0.0008404792 0.040894818 0.024427822 -0.0010381924
-0.017903296 0.049026474 -0.0033110625 -0.019223198 0.027515512 -0.011443167 0.03020989 0.013000396
-0.04983512 -0.03692743 0.019168006 0.0070411456 0.0132657895 -0.00956248 -0.017243685 -0.0012935358
0.026493412 -0.020033484 -0.019905506 0.03757495 0.039088037 0.032015808 0.040467102 -0.038495034
-0.024875311 -0.04498215 -0.024598612 0.025420066 0.048732243 -0.049294744 0.053091086 0.0013215663
0.024933062 -0.0043815323 -0.046675585 0.069314264 0.00704488 -0.0193319 -0.02771046 0.018687757
0.05207509 0.008156055 -0.03861724 0.007871889 0.027542852 0.053187426 -0.011843765 0.013115188
-0.03886416 0.014882303 0.051445577 0.009687222 0.05167183 -0.00929603 0.040245462 0.027374899
0.054631267 0.06476811 0.10098954 0.09506727 0.007687266 -0.006995943 0.07211536 0.08053126
0.07208213 0.008787445 0.017627785 0.04307547 0.07236854 0.16458853 -0.010189268 0.07384978
0.09601714 0.04538672 0.11851918 -0.065830655 -0.0025821158 0.0001297189 0.01390535 0.07595955
0.09145418 0.044214416 0.040493462 0.05006504 -0.03096584 0.054345403 -0.0085073225 0.009003495
0.056172106 -0.028083012 0.01284067 -0.024301393 0.05719045 0.01637918 -0.056475267 0.043246105
0.08197826 -0.024983732 0.02126392 -0.036580116 0.031733237 0.042119548 0.038097836 -0.040271968
-0.033167366 -0.047186557 -0.023939103 -0.033013362 0.011559094 -0.01578581 -0.017558219 -0.053643554
-0.0063868253 -0.058433518 -0.056046985 0.0030017267 -0.06486261 -0.0064268666 -0.0021764918 -0.017207291
0.010292563 -0.031600863 0.020321313 -0.041967567 -0.053833213 -0.068452686 -0.004553123 -0.020277876
-0.028276263 -0.027227385 -0.024752855 0.007443335 -0.012485621 -0.023257596 -0.03226483 -0.04656583
00000000: e693 3f3d 695c f9bc c79d 84bc 24ce b73c
00000010: 680d dbbc 79bd fe3c 7495 1abc 16d0 0abb
00000020: fd3f 023c 6b36 d33c 68bc 40bc 1b0d 60bd
00000030: 7d11 d23c 699f 15bd 8768 a23a 2b47 a3bd
00000040: ce6d 49bd 8811 5d3c 6712 f8bb deb4 a03b
00000050: e5de 63bd 3b42 a0bd 8c53 0b3c e463 48bd
00000060: 28cd 103d 6bdb babc 89cb 983d 914a 223c
00000070: 5541 d9bc d378 653d c9fc 1a3d 20d8 09bb
00000080: 9f00 e3bc e51d 43bc 4bcb 413c af96 003d
00000090: 6224 d4bb ea0e 003d 4fe7 703d b59c 303d
000000a0: 5a1d bdbc 6d45 873d e2e9 20bc 9316 d63c
000000b0: 3161 133b a715 a83c 4cfe cbbc 6e53 2c3d
000000c0: 9fa7 59bb f048 453c fb09 73bc 1c63 323d
000000d0: 56a8 0c3d edb7 d6bc 13c2 1c3d f751 9dbb
000000e0: 2ae5 60bc 189c 0ebd d5e6 1fbc 2ec7 793d
000000f0: 53b5 d4bc 1604 263d 87f8 64bc 0708 18bd
00000100: 8058 94bc 5316 9f3c 994d ec3c ded2 773c
00000110: 15f5 b03c a9ed 2bbc 1acb 86bb 2ca0 5f3c
00000120: 9d0f 3bbb 024c 393d 9372 413d 53f9 7a3d
00000130: 9984 ab3d 7bf6 58bb 01b2 913c ee95 6b3d
00000140: 0bdd 7d3d 0917 873d 6752 8c3d 1644 343d
00000150: a793 c03c 2f8a 953b ed70 383d 88ce 8d3d
00000160: 4be2 aa3d 99ad 343c 18b2 0c3d 6170 af3d
00000170: 8ba5 613d b4d9 ae3d 25f0 7d3d 2934 e5bb
00000180: 678c 063d 076b 9f3d 15c1 313d c77b e43c
00000190: 9ae2 a4bc 8bb3 21bd 0205 c6bb 6ed3 f23b
000001a0: d0bc 01bc ac42 02bd d912 92bc 654b 563d
000001b0: 8db8 4f3d 6093 5dbc fbe3 b8bc 2924 393c
000001c0: b44d 07bc bd67 06bd 5191 b1bc 6cf6 293d
000001d0: 9b53 5cba 5381 273d db1c c83c f513 88ba
000001e0: efa9 92bc fccf 483d 69fe 58bb f879 9dbc
000001f0: 3668 e13c 1f7c 3bbc bb7a f73c 9dff 543c
00000200: e91f 4cbd 3841 17bd 3906 9d3c 69b9 e63b
00000210: c158 593c f3ab 1cbc a142 8dbc dc8b a9ba
00000220: b608 d93c 431d a4bc df10 a3bc 31e8 193d
00000230: c71a 203d 0223 033d d5c0 253d f8ac 1dbd
00000240: 4fc7 cbbc 343f 38bd 0783 c9bc be3d d03c
00000250: 769b 473d 49e9 49bd 0a76 593d 6838 ad3a
00000260: 6c40 cc3c f592 8fbb e62e 3fbd a3f4 8d3d
00000270: bdd8 e63b ef5d 9ebc 0c01 e3bc 1117 993c
00000280: b14c 553d f9a0 053c 1c2d 1ebd 18f9 003c
00000290: 8ca1 e13c 0fdb 593d 5a0c 42bc 16e1 563c
000002a0: 0730 1fbd e7d4 733c 99b8 523d 27b7 1e3c
000002b0: d7a5 533d 604e 18bc 6dd8 243d 5341 e03c
000002c0: 09c5 5f3d 25a5 843d 9bd3 ce3d a1b2 c23d
000002d0: 76e5 fb3b 393e e5bb 38b1 933d 93ed a43d
000002e0: cc9f 933d 37f9 0f3c 2568 903c e76f 303d
000002f0: f535 943d e589 283e e3f0 26bc 8e3e 973d
00000300: a2a4 c43d 6de7 393d 2fba f23d 39d2 86bd
00000310: b738 29bb 2705 0839 44d3 633c ae90 9b3d
00000320: 544c bb3d 2d1a 353d 79dc 253d 0011 4d3d
00000330: 13ac fdbc 4999 5e3d 4c62 0bbc 6583 133c
00000340: b914 663d 580e e6bc ac61 523c b713 c7bc
00000350: 8940 6a3d a12d 863c 9c52 67bd d422 313d
00000360: 38e4 a73d afaa ccbc ac31 ae3c 08d5 15bd
00000370: b6fa 013d 8c85 2c3d 7a0c 1c3d 38f4 24bd
00000380: 81da 07bd b146 41bd f01b c4bc 0539 07bd
00000390: 5b62 3d3c 3e51 81bc 41d6 8fbc 58b9 5bbd
000003a0: 9348 d1bb fc57 6fbd 8691 65bd 9eb8 443b
000003b0: b0d6 84bd 7798 d2bb 79a3 0ebb 4ef6 8cbc
000003c0: 23a2 283c e86f 01bd e278 a63c 2fe6 2bbd
000003d0: 3780 5cbd ec30 8cbd 5d32 95bb ca1d a6bc
000003e0: 9fa3 e7bc f70b dfbc 80c6 cabc 38e7 f33b
000003f0: 7d90 4cbc b786 bebc 2028 04bd d0bb 3ebd

feature.model.15.bias f4 [32]
0.027376946 -0.048258707 0.010632161 -0.08317006 -0.021455096 0.007883594 -0.033461023 0.06541026
-0.025026852 -0.052828543 0.063261956 -0.05238698 -0.02423423 0.029317219 -0.06896164 -0.027563551
-0.026461003 0.0034022124 -0.08812962 -0.075575136 0.028885797 0.000547556 0.053451803 0.01680226
0.04431488 0.04820752 -0.018529518 -0.018662257 -0.009385981 0.12325241 -0.020962575 -0.047684643
00000000: 9e45 e03c ecaa 45bd 8432 2e3c 1055 aabd
00000010: 99c2 afbc 312a 013c 6d0e 09bd d0f5 853d
00000020: 1d05 cdbc be62 58bd 7c8f 813d bb93 56bd
00000030: dd86 c6bc aa2a f03c c33b 8dbd f5cc e1bc
00000040: bfc4 d8bc a7f7 5e3b 4d7d b4bd 23c7 9abd
00000050: e8a1 ec3c dc89 0f3a 47f0 5a3d e5a4 893c
00000060: 8583 353d 4075 453d 37cb 97bc 97e1 98bc
00000070: a8c7 19bc c26b fc3d b5b9 abbc f950 43bd

feature.model.16.weight f4 [32]
0.9931416 0.9085943 0.9955233 1.254298 0.86286503 0.98126304 1.0145959 0.9696075
1.0511625 0.95406187 1.025066 0.95907605 0.99569285 0.88382137 0.8854819 0.85014474
0.86211246 0.921077 0.90073746 0.94602805 0.8803715 1.0821031 0.9761678 1.2844794
1.407395 1.1695399 0.95781624 0.96868384 0.9116195 0.91274726 0.9108233 1.1261677
00000000: 873e 7e3f a399 683f 9dda 7e3f d68c a03f
00000010: b9e4 5c3f 0e34 7b3f 47de 813f 3238 783f
00000020: 7e8c 863f 663d 743f 5d35 833f 0286 753f
00000030: bae5 7e3f 1e42 623f f1ae 623f 16a3 593f
00000040: 67b3 5c3f b4cb 6b3f bb96 663f e52e 723f
00000050: 0760 613f 5b82 8a3f 22e6 793f d269 a43f
00000060: 8525 b43f 7cb3 953f 7233 753f aafb 773f
00000070: e55f 693f cea9 693f b72b 693f 4326 903f

feature.model.16.bias f4 [32]
-0.056408323 -0.12134372 -0.07218728 0.18749195 -0.059701517 -0.06995041 0.040819086 -0.10399683
0.06817221 -0.032769118 -0.028770769 -0.0645271 0.02868533 -0.17084545 -0.111401744 -0.08176579
-0.19147661 -0.086827196 -0.1079687 -0.086759165 -0.12508251 0.058974415 -0.017277326 0.15559691
0.26623276 0.12637363 -0.0322246 -0.055062655 -0.088832036 -0.13636456 -0.0137378145 0.13604988
00000000: 6a0c 67bd 0e83 f8bd edd6 93bd e4fd 3f3e
00000010: 9489 74bd 2942 8fbd ea31 273d 4afc d4bd
00000020: df9d 8b3d e938 06bd adb0 ebbc c926 84bd
00000030: 7ffd ea3c 1cf2 2ebe 9926 e4bd d374 a7bd
00000040: 7212 44be 75d2 b1bd b21e ddbd caae b1bd
00000050: a115 00be 288f 713d 2e89 8dbc cc54 1f3e
00000060: a94f 883e 1768 013e f1fd 03bd 6189 61bd
00000070: 92ed b5bd 27a3 0bbe 9214 61bc a950 0b3e

feature.model.16.running_mean f4 [32]
1.546126 -1.3337669 0.16411026 -1.6740074 -0.6470932 1.6923721 -0.12292292 -0.9695297
0.20795359 0.22366446 -0.6613103 -2.235266 -1.5186884 -0.23362112 -0.112256266 3.609797
1.7391539 -1.3715363 -2.1858606 -1.8406584 -0.21191952 -0.7474116 1.2724439 0.023715189
-0.60901815 0.88730294 1.087774 0.12274889 -2.3769104 -1.209517 -2.6293027 -0.52950156
00000000: 75e7 c53f e0b8 aabf 850c 283e e045 d6bf
00000010: e6a7 25bf a69f d83f 03bf fbbd 1933 78bf
00000020: c9f1 543e 4c08 653e a24b 29bf 990e 0fc0
00000030: 6264 c2bf 603a 6fbe 9de6 e5bd ea06 6740
00000040: 989c de3f 808e afbf 24e5 0bc0 b29a ebbf
00000050: 6e01 59be 5e56 3fbf 71df a23f 5b46 c23c
00000060: 9de8 1bbf 4926 633f 2e3c 8b3f c563 fb3d
00000070: 4d1f 18c0 74d1 9abf 7f46 28c0 6a8d 07bf

feature.model.16.running_var f4 [32]
2.9397616 7.1121583 2.4773133 3.7489753 4.243976 3.7065868 1.6626217 1.9764928
2.9894934 2.4901412 3.2722702 5.667737 2.0159535 4.915859 4.7017117 7.3813486
17.519712 2.6834874 13.6039095 6.284123 2.4669595 1.9954933 13.907381 3.1970701
2.903908 2.5759752 1.8654273 4.0526094 7.4795775 3.6561408 9.556999 2.63715
00000000: 0e25 3c40 cd96 e340 4d8c 1e40 36ef 6f40
00000010: a7ce 8740 b838 6d40 cad0 d43f b7fd fc3f
00000020: dc53 3f40 795e 1f40 e06c 5140 1a5e b540
00000030: 6205 0140 b84e 9d40 6c74 9640 0234 ec40
00000040: 5f28 8c41 42be 2b40 9da9 5941 8917 c940
00000050: aae2 1d40 536c ff3f a284 5e41 cc9c 4c40
00000060: a1d9 3940 c7dc 2440 52c6 ee3f faae 8140
00000070: b358 ef40 36fe 6940 78e9 1841 11c7 2840

feature.model.18.weight f4 [32, 32, 3, 3]
0.042572733 -0.022666465 0.051858228 -0.031392056 -0.03356328 0.0028400666 0.021316817 0.012753862
-0.0038465182 -0.0052918494 -0.052343495 -0.06468639 0.018275006 0.052717086 -0.00029695066 0.016898835
0.12433441 0.034425177 0.14720464 0.07636429 0.05959443 0.10260585 0.053833738 0.0017205201
0.08751478 -0.03486313 -0.06805887 0.11226383 -0.054254394 -0.009577986 0.11075034 0.05981165
-0.03989221 0.020541979 0.0831928 -0.071152814 -0.005176491 0.00831512 0.07938741 0.0066633862
-0.03968312 -0.038306072 -0.06513168 0.019939017 -0.018470256 -0.034734447 0.03764496 -0.007934613
-0.045735963 0.051959407 0.023515567 -0.010575031 0.02193124 -0.025797298 0.062858984 0.13953109
0.101730734 0.07056713 0.13632908 0.056842815 -0.01346281 0.04577352 -0.039771717 0.057240266
0.07406007 -0.010704763 0.024639092 0.16848211 0.036188442 -0.0018105189 0.04807404 0.0028875275
0.074800655 0.009234233 0.015266975 0.080093965 0.0049368846 -0.0633528 0.024618274 -0.06577416
-0.12840374 0.06457431 -0.046219047 -0.009359237 0.09450774 -0.016737742 -0.027407937 -0.014806408
-0.051056452 -0.077852674 -0.028183198 -0.067851916 0.019043714 -0.014705218 -0.0733753 -0.027734615
0.03976097 -0.009360411 -0.019046124 0.024958814 0.052852996 0.038609415 -0.029851628 0.05714224
0.0411473 0.057473876 -0.009999951 -0.028388724 0.02711355 0.035974022 -0.0069520473 -0.060840957
0.036566794 -0.041617382 0.0024398381 0.003056123 0.006148945 0.011689437 0.001969537 0.010882171
-0.0070580053 -0.0064296285 -0.02247726 0.029431047 0.010343049 -0.017135117 0.045072597 0.08554112
0.08353425 0.11509538 0.15862651 0.11365519 0.0683604 0.07447438 0.09466474 0.0010859953
-0.027678452 -0.04431503 0.024353366 -0.0056739133 -0.028692983 0.10002791 0.05706988 0.08515882
-0.026960494 -0.003853387 0.03506959 0.059002586 0.07064921 0.0052261357 -0.023030667 -0.0068135727
0.032247867 -0.0056989454 -0.008879641 -0.014506578 -0.07028981 -0.0091149835 -0.005222625 -0.076644644
-0.033528727 -0.02474986 0.036890887 0.003679549 -0.038138516 -0.000813176 0.01723962 0.057023343
0.05469732 -0.028348895 0.05632081 0.093165986 0.0030853583 0.03736561 0.04637828 -0.0074848128
-0.005035264 0.034250196 -0.036110967 -0.036244914 0.04133087 0.045017336 0.04851533 0.006106483
0.054888632 0.04321472 0.029951043 -0.02630043 0.041291505 -0.07472031 -0.007314493 0.02745338
-0.041797698 -0.015785825 -0.042208675 0.032810435 -0.046744544 -0.037718993 0.024905276 0.04012993
-0.019204063 0.00047134518 -0.049499076 -0.017905409 0.017993268 0.07207957 0.027251761 0.018981531
0.048188675 -0.006777887 -0.032649394 0.047860883 0.0013631824 0.06984119 0.001417066 -0.044819698
-0.013380036 0.043266203 -0.09446989 -0.03678018 0.0134909535 0.012886652 0.015295999 0.0856817
-0.057611816 -0.010301711 0.0025769558 0.045864314 -0.008517029 0.03570794 -0.036225967 -0.04102492
0.02022329 -0.01100805 0.043463606 0.06948931 0.0392096 -0.034106094 -0.012926251 -0.015459634
0.07158307 0.07842832 0.06364086 0.027253237 -0.046305973 0.040157698 0.065455884 0.025337568
-0.0024682968 -0.0040087514 0.09385258 0.031966824 -0.00010296309 0.02263973 0.005081653 -0.019644435
00000000: bf60 2e3d 06af b9bc 4b69 543d f594 00bd
00000010: a679 09bd 6920 3a3b 9ba0 ae3c 93f5 503c
00000020: de15 7cbb 4067 adbb 2266 56bd 4c7a 84bd
00000030: 77b5 953c dfed 573d 0bb0 9bb9 6d6f 8a3c
00000040: 0aa3 fe3d 6a01 0d3d d0bc 163e e264 9c3d
00000050: 4a19 743d 0423 d23d c480 5c3d 1383 e13a
00000060: f33a b33d a4cc 0ebd 7362 8bbd 94ea e53d
00000070: db39 5ebd fcec 1cbc 13d1 e23d 10fd 743d
00000080: 0466 23bd a747 a83c fd60 aa3d 91b8 91bd
00000090: 8e9f a9bb 243c 083c de95 a23d 8958 da3b
000000a0: c48a 22bd d4e6 1cbd c263 85bd 2657 a33c
000000b0: ef4e 97bc b545 0ebd 9a31 1a3d 2e00 02bc
000000c0: a255 3bbd 63d3 543d b8a3 c03c e542 2dbc
000000d0: 25a9 b33c db54 d3bc 36bc 803d 3de1 0e3e
000000e0: 3458 d03d 8085 903d da99 0b3e 03d4 683d
000000f0: 1e93 5cbc 047d 3b3d abe7 22bd c574 6a3d
00000100: ceac 973d 0863 2fbc ecd7 c93c 9386 2c3e
00000110: 553a 143d ef4e edba 49e9 443d ac3c 3d3b
00000120: 1631 993d 2e4b 173c 5622 7a3c 4e08 a43d
00000130: 97c5 a13b 1dbf 81bd 43ac c93c 9ab4 86bd
00000140: 457c 03be 893f 843d 2f50 3dbd 7c57 19bc
00000150: 468d c13d 971d 89bc 9c86 e0bc 9496 72bc
00000160: 9220 51bd 3971 9fbd 73e0 e6bc f2f5 8abd
00000170: 9001 9c3c 28ee 70bc ca45 96bd b433 e3bc
00000180: 66dc 223d 695c 19bc 9e06 9cbc 6d76 cc3c
00000190: 627c 583d e824 1e3d 678b f4bc fb0d 6a3d
000001a0: 128a 283d ba69 6b3d d6d6 23bc 788f e8bc
000001b0: 3c1d de3c 7f59 133d 00ce e3bb 5e34 79bd
000001c0: 10c7 153d fd76 2abd b1e5 1f3b 3c49 483b
000001d0: 177d c93b 0d85 3f3c 5913 013b 224b 323c
000001e0: d746 e7bb a2af d2bb 3b22 b8bc 6119 f13c
000001f0: e475 293c f25e 8cbc 0b9e 383d 2f30 af3d
00000200: 0114 ab3d 20b7 eb3d fd6e 223e 0dc4 e83d
00000210: 8a00 8c3d 0686 983d 96df c13d f557 8e3a
00000220: ecbd e2bc ad83 35bd b680 c73c 3cec b9bb
00000230: 8c0d ebbc 6fdb cc3d 1bc2 693d bf67 ae3d
00000240: 41dc dcbc 1b89 7cbb 21a5 0f3d b2ac 713d
00000250: 88b0 903d 0140 ab3b cfaa bcbc 6444 dfbb
00000260: 5716 043d 38be babb ea7b 11bc 00ad 6dbc
00000270: 1bf4 8fbd 0357 15bc 8e22 abbb def7 9cbd
00000280: 6b55 09bd 38c0 cabc e61a 173d 9724 713b
00000290: 2237 1cbd 512b 55ba 1b3a 8d3c 4f91 693d
000002a0: 4c0a 603d f13b e8bc a6b0 663d cfcd be3d
000002b0: b933 4a3b af0c 193d 27f7 3d3d 2943 f5bb
000002c0: dbfe a4bb ef49 0c3d 18e9 13bd 8c75 14bd
000002d0: 8f4a 293d 1964 383d 03b8 463d e418 c83b
000002e0: e7d2 603d eb01 313d e45b f53c 0074 d7bc
000002f0: 4821 293d f606 99bd 6aae efbb e9e5 e03c
00000300: 1034 2bbd 4651 81bc 01e3 2cbd 3c64 063d
00000310: 3577 3fbd 3b7f 1abd 2606 cc3c 485f 243d
00000320: d751 9dbc e11e f739 8bbf 4abd 5dae 92bc
00000330: 9e66 933c 749e 933d 163f df3c 287f 9b3c
00000340: 7d61 453d 0a19 debb 5fbb 05bd c609 443d
00000350: d0ac b23a e608 8f3d d8bc b93a dc94 37bd
00000360: f037 5bbc e737 313d 6e79 c1bd d0a6 16bd
00000370: 2909 5d3c 8922 533c 129c 7a3c e379 af3d
00000380: 5efa 6bbd 82c8 28bc 25e2 283b 38dc 3b3d
00000390: 028b 0bbc 7d42 123d ae61 14bd bf09 28bd
000003a0: 50ab a53c 1c5b 34bc e506 323d 6950 8e3d
000003b0: 3f9a 203d d5b2 0bbd a0c8 53bc 684a 7dbc
000003c0: 259a 923d 079f a03d 2456 823d 2e42 df3c
000003d0: 55ab 3dbd 667c 243d bc0d 863d bb90 cf3c
000003e0: 26c3 21bb d85b 83bb c835 c03d a5ef 023d
000003f0: e3ed d7b8 f476 b93c ff83 a63b 5eed a0bc

feature.model.18.bias f4 [32]
0.0095031755 0.09415131 -0.029204851 0.0153934285 0.028317064 -0.058089703 0.0061733485 -0.062372398
0.097155124 0.01660543 -0.0048082294 -0.040464826 -0.023340574 0.04274431 -0.07756387 -0.06994189
-0.045039985 0.019006353 -0.073623866 -0.002271937 -0.024203664 0.069999985 -0.022063427 -0.063610174
0.03521604 0.017906064 0.044030692 -0.030339025 0.05011338 0.05196486 0.036351625 -0.032288052
00000000: 35b3 1b3c 67d2 c03d 033f efbc b834 7c3c
00000010: 30f9 e73c 78ef 6dbd cd49 ca3b 337a 7fbd
00000020: 44f9 c63d 1c08 883c 5a8e 9dbb 72be 25bd
00000030: bb34 bfbc a814 2f3d ced9 9ebd b23d 8fbd
00000040: d97b 38bd 36b3 9b3c 1cc8 96bd c7e4 14bb
00000050: c346 c6bc 275c 8f3d 5cbe b4bc 0d46 82bd
00000060: b23e 103d bdaf 923c 8759 343d 8c89 f8bc
00000070: b043 4d3d 1bd9 543d 71e5 143d 7a40 04bd

feature.model.19.weight f4 [32]
0.9246824 1.0699679 1.0911429 1.0544401 1.0377791 0.9566365 1.0092359 1.0829159
0.8966512 0.8722854 1.1585014 0.9901648 0.8256008 0.9905953 1.0684141 0.97314197
1.0810916 0.9735473 1.0739938 1.0855442 1.0358237 0.9129592 0.99894273 0.9696179
1.0598965 0.99628365 1.0429273 0.980787 1.0843062 1.0590544 1.100152 0.9888471
00000000: fcb7 6c3f b5f4 883f 92aa 8b3f e5f7 863f
00000010: f2d5 843f 21e6 743f a42e 813f fd9c 8a3f
00000020: ef8a 653f 194e 5f3f c649 943f 717b 7d3f
00000030: 935a 533f a797 7d3f cbc1 883f d51f 793f
00000040: 3661 8a3f 653a 793f a178 893f 1df3 8a3f
00000050: df95 843f b2b7 693f b6ba 7f3f e138 783f
00000060: b0aa 873f 720c 7f3f a47e 853f db14 7b3f
00000070: 8cca 8a3f 188f 873f c8d1 8c3f 1525 7d3f

feature.model.19.bias f4 [32]
-0.12556948 0.020810924 -0.027921315 0.06629427 -0.05099894 -0.02015983 -0.061501805 0.038971234
-0.06337875 -0.09486661 0.07327872 -0.05435713 -0.121739104 -0.08199271 -0.034135137 -0.083742864
-0.04975258 -0.097997665 0.016478023 0.028130576 0.018988578 -0.06145007 -0.04684854 -0.026587963
-0.00077092444 -0.039812557 -0.026277402 -0.0383131 0.023394903 0.030195573 0.012397787 0.010902591
00000000: 4995 00be ac7b aa3c 3ebb e4bc 4ac5 873d
00000010: 44e4 50bd 3a26 a5bc 51e9 7bbd 4da0 1f3d
00000020: b8cc 81bd 6d49 c2bd 2713 963d 95a5 5ebd
00000030: 5a52 f9bd cbeb a7bd 49d1 0bbd 6181 abbd
00000040: 5cc9 4bbd 00b3 c8bd ebfc 863c 1872 e63c
00000050: ef8d 9b3c 12b3 7bbd 41e4 3fbd 00cf d9bc
00000060: dd17 4aba 7e12 23bd b543 d7bc 32ee 1cbd
00000070: aba6 bf3c b55c f73c 1620 4b3c c8a0 323c

feature.model.19.running_mean f4 [32]
1.3808781 -0.5643364 -0.8862745 -0.985626 0.23004238 0.44735605 -1.066529 -1.4200628
0.6779717 0.7460835 -1.1151774 -1.0344858 -0.7367873 -0.15210125 -1.3534436 0.08324473
0.18960725 -0.3466189 -1.3837389 -0.8018036 -1.1484239 -1.3703847 -1.3341447 -0.0657484
-1.1973244 -0.9339516 -1.4788721 -0.5452261 -0.9301879 -0.030828327 -0.6240464 -2.7553663
00000000: 9dc0 b03f 5a78 10bf e3e2 62bf fc51 7cbf
00000010: 3b90 6b3e da0b e53e 0684 88bf 9ec4 b5bf
00000020: 8e8f 2d3f 54ff 3e3f 22be 8ebf 086a 84bf
00000030: 189e 3cbf 6ec0 1bbe a43d adbf 377c aa3d
00000040: 6728 423e 0878 b1be 5b1e b1bf 0043 4dbf
00000050: 8eff 92bf c468 afbf 41c5 aabf 19a7 86bd
00000060: ed41 99bf 7417 6fbf ae4b bdbf f093 0bbf
00000070: cb20 6ebf b08b fcbc 81c1 1fbf ec57 30c0

feature.model.19.running_var f4 [32]
1.0308939 0.97167325 0.9122698 1.5827563 0.99044555 1.6575284 0.9611527 0.965869
1.6568052 1.1322737 0.9533605 0.70026535 1.7879635 1.0700021 0.8746018 1.2849377
0.84703785 0.7924462 1.338813 1.0810208 0.77347076 1.5395006 1.0006348 1.3158491
0.7875765 1.1400999 0.9311449 1.0969017 0.9377884 0.97419614 0.89820945 2.8412988
00000000: 55f4 833f 94bf 783f 838a 693f c297 ca3f
00000010: d78d 7d3f e429 d43f 1a0e 763f 3143 773f
00000020: 3112 d43f 58ee 903f 6f0f 743f 9744 333f
00000030: fddb e43f d4f5 883f e7e5 5f3f d778 a43f
00000040: 79d7 583f c1dd 4a3f 395e ab3f e45e 8a3f
00000050: 2e02 463f 5b0e c53f cd14 803f be6d a83f
00000060: 9d9e 493f cbee 913f 835f 6e3f 4667 8c3f
00000070: e712 703f eb64 793f 0ef1 653f d7d7 3540
