code/assignment1/mnist-classifier/best-mlp.pth (torch, 308929 bytes, 12 tensors)

layers.0.weight f4 [32, 784]
0	0x3c10d389	0.008839496
1	0xbcbb28d3	-0.022846615
2	0xbc3bbb32	-0.011458205
3	0xb91aa1a7	-0.00014746805
4	0xbadf7b4a	-0.0017050293
5	0x3d3678e3	0.04454888
6	0x3c82aeb4	0.015952446
7	0x3c8f0e72	0.017462943
8	0x3cbd4de4	0.02310843
9	0x3d0d09ba	0.034433104
10	0x3ca39e67	0.019972993
11	0x3cf2872a	0.029605467
12	0xbc9483aa	-0.018129189
13	0x3c9e86b6	0.019351345
14	0xbae41d16	-0.0017403688
15	0x3d2aa492	0.041660853
16	0x3cdc9909	0.026928442
17	0xbc9cc9dc	-0.019139223
18	0x3d0c7f95	0.03430136
19	0x3b729464	0.0037014717
20	0xbc277adc	-0.010222163
21	0x3d2e58a0	0.042564988
22	0x3d2dce48	0.042433053
23	0xbc999925	-0.018749783
24	0x3c3d94e0	0.011571139
25	0xbcc6e0c6	-0.024277102
26	0x3d2f6b89	0.042827163
27	0xbc4bbe18	-0.012435459
28	0x3d2c5e8a	0.042082347
29	0xba13c940	-0.00056375936
30	0x3c874f3d	0.016517276
31	0x3c87b6c4	0.016566642
32	0x3c209ad5	0.00980254
33	0xbc16d1b5	-0.0092052715
34	0x3ca9ec37	0.020742519
35	0x3be00ad3	0.006837228
36	0x3d12d040	0.035843134
37	0xbc040611	-0.008058087
38	0x3c718b76	0.014742723
39	0xbb6dc0ac	-0.0036278171
40	0xbcdace0c	-0.026709579
41	0x3d30683a	0.04306815
42	0x3c9a4492	0.018831525
43	0x3c340d7b	0.010989542
44	0xbc6fc16f	-0.0146335205
45	0xbc1dc237	-0.009628824
46	0xb98688d7	-0.00025660425
47	0xbc22c11e	-0.009933738
48	0x3c5027ff	0.012704848
49	0xbca1f705	-0.019771108
50	0x3d272d62	0.040814765
51	0xbc4736d2	-0.012159066
52	0x3cd52edc	0.02602332
53	0xbc84f269	-0.016228871
54	0x3a9f50be	0.00121548
55	0x3d20db33	0.039271545
56	0x3c780492	0.015137808
57	0x3cb17f17	0.021667046
58	0x3c596382	0.013268353
59	0x3d1f3fbd	0.038879145
60	0x3d387707	0.04503539
61	0x3cb0ad65	0.021567056
62	0x3d20add3	0.03922827
63	0x3d13ed03	0.036114704
64	0x3c85eefe	0.016349312
65	0x3c157309	0.009121665
66	0x3ccb4095	0.024811069
67	0xbc8f073d	-0.017459506
68	0xbcbd2019	-0.023086594
69	0x3ce2722a	0.027642328
70	0xbc274a87	-0.01021064
71	0x3cb98330	0.022645563
72	0xbbe407fc	-0.0069589596
73	0xbc101715	-0.008794566
74	0x3d06edf8	0.03294179
75	0x3ca2b66f	0.019862382
76	0xbac83f7d	-0.001527771
77	0x3d188e92	0.03724534
78	0x3d0f7936	0.035027705
79	0x3cf7b519	0.030237721
80	0xbb8291ef	-0.003984682
81	0xbc3d9e22	-0.011573346
82	0x3d352000	0.04421997
83	0x3d23b8ad	0.039971042
84	0x3c8433b1	0.01613793
85	0x3b43ff5a	0.002990684
86	0xbc8b89b4	-0.017033435
87	0x3d3246d6	0.043524586
88	0xbbdb7bf4	-0.006698126
89	0x3c43e3f1	0.011956201
90	0x3be60cbb	0.0070205606
91	0xbcdb5066	-0.026771735
92	0x3b6f59a4	0.0036521936
93	0xbc47d2ba	-0.012196237
94	0xbd3971b0	-0.045274436
95	0xbd0da72b	-0.034583252
96	0x3cfab1ba	0.030602325
97	0xba8d9161	-0.0010800773
98	0x3db718cf	0.08940279
99	0x3de02fc4	0.109466106
100	0x3d9fd759	0.07804746
101	0x3dc1c2cd	0.094609834
102	0x3dd4ae9f	0.10384869
103	0x3dc569bd	0.096393086
104	0x3d8c8282	0.0686083
105	0x3d370c26	0.04468932
106	0x3d3710e5	0.044693846
107	0x3c996381	0.018724205
108	0xbc0fad0a	-0.008769283
109	0x3c437996	0.011930844
110	0xbcb0b34d	-0.021569872
111	0x3d2621d2	0.040559597
112	0x3c2369ea	0.009973982
113	0x3bebb273	0.0071929037
114	0x3d3def01	0.04637051
115	0x3c0bf34f	0.008541896
116	0xbbab6d3c	-0.0052315276
117	0x3d771154	0.06031926
118	0x3d33deb4	0.043913558
119	0x3d82a724	0.06379536
120	0x3d611da6	0.054959916
121	0x3d4bbc40	0.049740076
122	0x3e1872b4	0.14887506
123	0x3e1b054b	0.15138738
124	0x3e0d6593	0.13808279
125	0x3ddc1b1a	0.10747357
126	0x3e0b785c	0.13620132
127	0x3e93073d	0.2871646
128	0x3e21bf15	0.15795548
129	0x3d4302df	0.04761016
130	0x3e311948	0.172948
131	0x3e10f5cf	0.14156269
132	0x3cc7a283	0.024369484
133	0x3e16e95e	0.1473746
134	0x3db47140	0.08810663
135	0x3ca76714	0.020434894
136	0x3d8804be	0.066415295
137	0x3c61c107	0.013778931
138	0xbb3554ff	-0.002766907
139	0xbc6e18e5	-0.0145323025
140	0x3d164ee4	0.03669633
141	0xbb7b5efc	-0.0038356176
142	0x3c9d319c	0.019188695
143	0xbc094ce8	-0.008380152
144	0x3cf1a7b4	0.029498912
145	0x3dd0d6bc	0.10197207
146	0x3e124e08	0.14287579
147	0x3df545f6	0.119762346
148	0x3d06b55c	0.0328878
149	0x3d9bb69e	0.07603191
150	0x3e3037f7	0.17208849
151	0x3e22b122	0.15887883
152	0x3d7ce8f9	0.061745618
153	0x3cf780f4	0.030212857
154	0xbd4c200f	-0.04983526
155	0x3d85fc8c	0.0654231
156	0x3dbaecc2	0.09127189
157	0xbd7c7ddf	-0.061643478
158	0x3c856e93	0.016288077
159	0x3c35cdb7	0.0110964095
160	0xbc888dcf	-0.016669182
161	0xbc00b836	-0.007856419
162	0x3da32028	0.07965118
163	0x3d507117	0.0508891
164	0x3d7e81b4	0.062135413
165	0x3ba2bbac	0.00496622
166	0x3cbcd6fb	0.02305173
167	0x3d08e5fa	0.033422448
168	0x3d283cd7	0.041073646
169	0x3d3ad635	0.04561444
170	0x3cdac58e	0.02670553
171	0x3d6622cc	0.05618553
172	0x3d7758e1	0.060387496
173	0x3dfa1cbe	0.122125134
174	0x3d685c13	0.056728434
175	0x3cb7e5e9	0.022448497
176	0x3dd8e30c	0.10590181
177	0x3e07ac17	0.13249241
178	0x3dc8ea7f	0.098103516
179	0x3ddbf891	0.1074077
180	0x3d1256bf	0.03572726
181	0x3dcf614d	0.101259805
182	0x3d710d4d	0.058850575
183	0xbd63fd17	-0.055661287
184	0x3da4cea8	0.08047229
185	0x3da07618	0.078350246
186	0x3e0e1393	0.13874654
187	0xbc2331cb	-0.009960602
188	0x3d6b240c	0.057407424
189	0xbcaae431	-0.020860763
190	0x3d3e0cf1	0.04639906
191	0x3c162b83	0.009165647
192	0x3db5f885	0.08885292
193	0x3db0bf8e	0.08630286
194	0x3d6f7104	0.05845739
195	0x3cdc09e5	0.026860187
196	0x3cbc179f	0.022960482
197	0x3d2faa71	0.042887155
198	0xbcdf54cb	-0.027262112
199	0x3cf859f1	0.030316325
200	0x3ce6bd6d	0.028166497
201	0x3d57af74	0.05265756
202	0xbcdc8726	-0.026919913
203	0xbda7b6e4	-0.081891805
204	0x3d062d0c	0.032757804
205	0x3ce92ebf	0.028464673
206	0x3d1d6871	0.03842968
207	0x3db3153f	0.08744287
208	0x3e1178a9	0.14206184
209	0x3ce73b97	0.028226657
210	0x3e2ee9a5	0.17081316
211	0xbc9cd236	-0.019143205
212	0x3e2643fd	0.16236873
213	0x3e81be6e	0.253406
214	0x3d32f001	0.043685917
215	0x3dfa2b42	0.12215282
216	0x3e0bd6b1	0.13656117
217	0x3c84e4d4	0.016222395
218	0x3b85e316	0.0040859086
219	0xbdd8d75a	-0.1058795
220	0xbc640619	-0.013917469
221	0x3db7d697	0.08976477
222	0xbb8cb793	-0.0042943447
223	0x3d33ca89	0.043894324
224	0xbcacdd12	-0.021101508
225	0xbc1b4339	-0.009476476
226	0xbca5562d	-0.020182693
227	0x3b190efc	0.0023354879
228	0xbb75acab	-0.0037486951
229	0xbca4e3df	-0.020128189
230	0xbd04822e	-0.03235071
231	0xbd85c26e	-0.06531225
232	0x3b2e7458	0.002661964
233	0x3daa2697	0.08308142
234	0x3cf923b2	0.030412529
235	0x3db5374a	0.08848436
236	0x3c9bfa2c	0.01904019
237	0x3c863699	0.016383456
238	0x3d9ed6c6	0.077558085
239	0x3dae44ec	0.085092396
240	0xbce36c31	-0.02776155
241	0x3c305066	0.010761356
242	0xbc9a415e	-0.018829998
243	0xbdc386ac	-0.09547171
244	0xbd387485	-0.045032997
245	0xbcdafecb	-0.026732823
246	0xbcd17f2d	-0.025573337
247	0xbdc73603	-0.09727099
248	0x3d66923c	0.056291804
249	0x3d67cca0	0.05659163
250	0xbbb2bc13	-0.005454549
251	0xbc8b020b	-0.016968748
252	0xbc059635	-0.008153488
253	0x3a933956	0.0011232297
254	0x3c3f77e8	0.011686303
255	0x3ca49771	0.020091744

layers.0.bias f4 [32]
0	0xbd3068b6	-0.04306861
1	0xbd009527	-0.031392243
2	0x3cadfcf3	0.02123878
3	0xbccf06b0	-0.025271744
4	0x3d790979	0.06080005
5	0x3cb61a47	0.022229327
6	0xbd2239ce	-0.039605908
7	0x3d949387	0.07254701
8	0xbdb8fda7	-0.09032755
9	0x3cdaf24f	0.02672687
10	0xbd072e54	-0.033003166
11	0xbc433681	-0.01191485
12	0xbd063a81	-0.032770637
13	0xba3ab4aa	-0.0007122258
14	0x3c835297	0.016030593
15	0xbd34053d	-0.043950308
16	0x3bff9fb9	0.007801023
17	0x3a4a07c3	0.0007706845
18	0xbc99a81e	-0.018756922
19	0x3cc3149d	0.02381354
20	0x3c941c27	0.01807983
21	0xbd0b79a1	-0.03405154
22	0x3d3fbc6c	0.046810552
23	0xbcbc6695	-0.022998134
24	0xbc82b984	-0.015957601
25	0xbc9117c1	-0.017711522
26	0xbda59cae	-0.08086525
27	0x3d8c486a	0.068497494
28	0xbcb6b5a0	-0.022303402
29	0x3c99d53f	0.018778441
30	0xbd17938e	-0.037005953
31	0xbccde6bf	-0.025134442

layers.2.weight f4 [10, 32]
0	0xbf430f5e	-0.76195323
1	0x3d17f7ce	0.03710156
2	0xbe4cc5c2	-0.19997314
3	0x3dbdb0f8	0.0926227
4	0xbe88e6c5	-0.26738563
5	0x3e5dc687	0.21657763
6	0xbe19b49c	-0.15010303
7	0x3d1bfc91	0.038082663
8	0xbeb0a9fc	-0.34504688
9	0xbd6a8ff9	-0.05726621
10	0xbe17d7b5	-0.1482838
11	0x3cdb822b	0.026795467
12	0xbea357d4	-0.31902945
13	0xbe186443	-0.14881997
14	0x3d834429	0.06409485
15	0x3e61114b	0.21979253
16	0xbb8ed6d5	-0.004359106
17	0x3e1b66bc	0.15175909
18	0x3d924b98	0.071433246
19	0xbbc5d446	-0.006037268
20	0x3d9d7ba7	0.076896004
21	0x3ce86e93	0.028373038
22	0x3c1683df	0.009186714
23	0xbc1726cc	-0.0092255585
24	0xbd48f4a5	-0.049061436
25	0xbe201437	-0.15632711
26	0xbe4733c5	-0.19453342
27	0x3e923dde	0.28562826
28	0x3d1541a5	0.036439557
29	0xbdea1921	-0.11430574
30	0xbe1b48d1	-0.15164496
31	0xbdca14ba	-0.098672345
32	0x3e220f77	0.15826212
33	0x3e042aff	0.12907027
34	0xbe0d2e19	-0.13787116
35	0xbe18c1f2	-0.14917734
36	0xbe7d6e26	-0.2474905
37	0xbe473cd5	-0.194568
38	0xbdf6642c	-0.12030825
39	0x3e57bb0e	0.2106745
40	0x3e5b22d3	0.21400003
41	0xbe3544d8	-0.17702043
42	0xbcf17e91	-0.029479297
43	0x3c4775b0	0.012174055
44	0xbdbda459	-0.092598625
45	0x3d352ee5	0.044234175
46	0xbcbd9682	-0.023143057
47	0xbdc5d9fd	-0.096607186
48	0xbe248aa2	-0.16068509
49	0xbe8eef39	-0.27916887
50	0x3de4dea9	0.111752816
51	0xbda2f099	-0.079560466
52	0xbe101c57	-0.14073311
53	0x3e0981e1	0.13428451
54	0xbea27bbf	-0.31735036
55	0x3cae7271	0.021294804
56	0x3cc89b1d	0.024488026
57	0xbe28ef90	-0.16497636
58	0x3e9babc0	0.30404472
59	0xbde59081	-0.112092026
60	0x3e046977	0.12930857
61	0x3d105d7d	0.035245407
62	0x3de65f6f	0.11248671
63	0xbef0ce82	-0.47032553
64	0xbeeedaa7	-0.46651193
65	0x3d845567	0.06461602
66	0x3e102c90	0.14079499
67	0x3da25a55	0.07927386
68	0xbe9835a5	-0.29728428
69	0xbcedb26b	-0.02901574
70	0xbd222dc4	-0.039594427
71	0x3e94c7bf	0.29058644
72	0xbf09e6c2	-0.53867733
73	0xbe22c9ad	-0.15897246
74	0x3c60d4a4	0.0137225725
75	0xbe1ef2e4	-0.15522343
76	0x3e15596e	0.14584896
77	0x3dfdeb64	0.12398413
78	0xbe125bc7	-0.14292823
79	0xbde55e17	-0.11199587
80	0xbd31b4ca	-0.043385305
81	0x3ec48040	0.38379097
82	0xbc8aa7b2	-0.016925666
83	0xbd6fa7e7	-0.058509734
84	0x3dacde5e	0.08440851
85	0xbe0f2e22	-0.13982442
86	0xbe665af3	-0.22495632
87	0xbdfce377	-0.12348073
88	0xbd83b26c	-0.06430516
89	0x3df245c7	0.11829715
90	0x3dfd50b8	0.123689115
91	0x3e0854aa	0.13313547
92	0x3d44588d	0.04793601
93	0x3d896130	0.0670799
94	0xbcb0b9ef	-0.021573035
95	0xbe84b1f4	-0.25917017
96	0x3ea63ddb	0.32469067
97	0xbe201c92	-0.15635899
98	0x3d36cd0d	0.044629145
99	0xbbdce4eb	-0.0067411563
100	0xbd872221	-0.065983064
101	0xbd3429fd	-0.043985356
102	0xbe2968cd	-0.16543885
103	0x3e6600c2	0.22461227
104	0xbec191d2	-0.37806565
105	0x3e00f8a9	0.12594856
106	0x3e20da92	0.15708378
107	0xbb5cf0a4	-0.003371277
108	0xbdb77abc	-0.089589566
109	0x3d4325a6	0.047643326
110	0x3d5aa3fb	0.05337904
111	0xbecf6d39	-0.40513018
112	0xbd6accda	-0.057324268
113	0xbe48b139	-0.19598855
114	0x3d81ad3c	0.0633187
115	0x3dfb67b9	0.12275643
116	0xbe0cb2e4	-0.13740116
117	0xbda2bd5c	-0.07946274
118	0x3e712c25	0.23551996
119	0xbe1e2bb9	-0.15446366
120	0x3cd1eabf	0.025624631
121	0xbdc35007	-0.095367484
122	0xbdd0513e	-0.10171746
123	0xbd79f44e	-0.061024003
124	0xbdf4078d	-0.11915503
125	0x3e046e7e	0.12932774
126	0x3dce1ac0	0.10063696
127	0xbeb6d5dd	-0.3571004
128	0x3e25a38a	0.16175666
129	0x3dde6c4d	0.108605005
130	0xbe830a47	-0.25593778
131	0xbe0553ff	-0.13020323
132	0xbd953d70	-0.07287109
133	0xbea03c32	-0.31295925
134	0x3d0e437d	0.03473233
135	0xbda6327c	-0.08115098
136	0x3e27253d	0.16322799
137	0xbda38fe0	-0.07986426
138	0x3d8f306b	0.06991657
139	0xbdcfcf59	-0.1014697
140	0xbc29344b	-0.010327409
141	0xbc8cd563	-0.017191594
142	0xbc335706	-0.010946041
143	0x3e7137c4	0.23556429
144	0xbdd1b62f	-0.10239827
145	0x3e12fcc5	0.14354236
146	0x3de424a6	0.11139803
147	0x3d95aa8a	0.07307918
148	0x3e204cd5	0.15654309
149	0x3de3284e	0.11091672
150	0x3dc55064	0.09634474
151	0xbd89a063	-0.067200445
152	0x3c8b1e4c	0.01698222
153	0x3ca45794	0.020061292
154	0xbd62ee64	-0.05540313
155	0xbeea3c52	-0.45749146
156	0x3b2f9e34	0.0026797177
157	0xbe2537f3	-0.16134624
158	0x3d592fc7	0.05302408
159	0x3e9c145f	0.30484292
160	0x3ebe53fa	0.37173444
161	0x3e1cffd8	0.15331972
162	0x3ddfe528	0.1093238
163	0xbd65e2f2	-0.056124635
164	0x3d226bfa	0.039653756
165	0xbe5e6536	-0.21718296
166	0x3e130dc8	0.14360726
167	0xbd58cb66	-0.05292835
168	0x3e8fd5cc	0.28092802
169	0xbd0e62db	-0.034762245
170	0xbd1982b5	-0.037478168
171	0xbdce75a8	-0.10081035
172	0xbf1973cb	-0.5994231
173	0x3c965087	0.018348945
174	0xbd253a77	-0.04033896
175	0xbb00a9fe	-0.0019632573
176	0x3d725a26	0.059168003
177	0x3c4c0423	0.012452158
178	0x3e02e5ec	0.1278302
179	0xbe2965cb	-0.16542737
180	0xbe1fff56	-0.15624747
181	0x3db646fa	0.089002565
182	0x3d3d447d	0.046207894
183	0xbde10923	-0.10988071
184	0xbcbb85c5	-0.022890935
185	0x3dce204f	0.10064756
186	0xbf2d69cd	-0.67739564
187	0x3e3c265b	0.18374006
188	0xbdb360dc	-0.08758709
189	0x3dbc6821	0.091995485
190	0xbd5e792d	-0.05431478
191	0x3e419da7	0.18907796
192	0xbf24f7eb	-0.6444079
193	0xbe051c66	-0.12999114
194	0xbeac6284	-0.3366891
195	0xbce70281	-0.028199436
196	0x3e46c659	0.19411601
197	0xbdef4da9	-0.116847344
198	0x3dd29449	0.102821894
199	0x3e36f04d	0.17865105
200	0xbdd24441	-0.10266925
201	0xbe063549	-0.13106264
202	0xbe235c23	-0.15953116
203	0xbc5c9c35	-0.013464977
204	0x3db56c9a	0.08858605
205	0x3e1c1a17	0.15244327
206	0xbd8ee53b	-0.06977316
207	0x3e17904e	0.14801142
208	0x3c943fd9	0.018096851
209	0x3e36c58d	0.17848797
210	0xbe27549d	-0.16340871
211	0x3d3f8f37	0.04676744
212	0x3e07c925	0.13260324
213	0x3e05ced3	0.13067178
214	0xbf1905a8	-0.59774256
215	0x3d94af75	0.07260028
216	0xbdc264b0	-0.09491861
217	0xbe04f5da	-0.1298441
218	0xbf0781d8	-0.529325
219	0x3baa12f3	0.005190247
220	0x3d89fb96	0.06737439
221	0x3e0d7778	0.13815105
222	0xbded2efd	-0.11581228
223	0xbe0a360c	-0.1349718
224	0xbe80c022	-0.25146586
225	0xbe2c9e86	-0.16857347
226	0xbe79766f	-0.24361585
227	0x3d708399	0.05871925
228	0x3cd52ab6	0.026021343
229	0xbbc0fd06	-0.0058895377
230	0x3e19fb5c	0.15037292
231	0xbe97cbe2	-0.29647738
232	0xbe3712af	-0.17878221
233	0xbd768a13	-0.06019027
234	0xba0c8978	-0.00053610606
235	0x3c851422	0.016244952
236	0x3e29db9f	0.16587685
237	0xbe2356ef	-0.15951131
238	0xbd084c44	-0.033275858
239	0x3d80b881	0.06285191
240	0xbd39532b	-0.04524533
241	0xbee1a775	-0.44073072
242	0xbe338c2e	-0.17533943
243	0x3dbba600	0.09162521
244	0x3e104ec6	0.1409255
245	0x3cf81345	0.030282626
246	0x3e4eb06a	0.20184484
247	0xbc3d3e9e	-0.011550574
248	0xbd6bb5e8	-0.057546526
249	0xbe2080e6	-0.15674171
250	0x3e623d15	0.22093613
251	0x3cc0f117	0.02355246
252	0x3d986a7b	0.074421845
253	0x3e178b83	0.14799313
254	0xbe28dd28	-0.16490614
255	0xbe525dcd	-0.20543595

layers.2.bias f4 [10]
0	0xbd50da42	-0.050989397
1	0x3d923309	0.071386404
2	0xbd50993b	-0.050927382
3	0xbc0016fb	-0.007817979
4	0xbdcad387	-0.09903627
5	0x3ba829e9	0.005131949
6	0x3dee1831	0.11625708
7	0x3d18ea3b	0.037332755
8	0xbdf7a060	-0.12091136
9	0xbe06cfc9	-0.13165201

exp_avg f4 [32, 784]
0	0xbb6ac99b	-0.0035825733
1	0xbb6ac99b	-0.0035825733
2	0xbb6ac99b	-0.0035825733
3	0xbb6ac99b	-0.0035825733
4	0xbb6ac99b	-0.0035825733
5	0xbb6ac99b	-0.0035825733
6	0xbb6ac99b	-0.0035825733
7	0xbb6ac99b	-0.0035825733
8	0xbb6ac99b	-0.0035825733
9	0xbb6ac99b	-0.0035825733
10	0xbb6ac99b	-0.0035825733
11	0xbb6ac99b	-0.0035825733
12	0xbb6ac99b	-0.0035825733
13	0xbb6ac99b	-0.0035825733
14	0xbb6ac99b	-0.0035825733
15	0xbb6ac99b	-0.0035825733
16	0xbb6ac99b	-0.0035825733
17	0xbb6ac99b	-0.0035825733
18	0xbb6ac99b	-0.0035825733
19	0xbb6ac99b	-0.0035825733
20	0xbb6ac99b	-0.0035825733
21	0xbb6ac99b	-0.0035825733
22	0xbb6ac99b	-0.0035825733
23	0xbb6ac99b	-0.0035825733
24	0xbb6ac99b	-0.0035825733
25	0xbb6ac99b	-0.0035825733
26	0xbb6ac99b	-0.0035825733
27	0xbb6ac99b	-0.0035825733
28	0xbb6ac99b	-0.0035825733
29	0xbb6ac99b	-0.0035825733
30	0xbb6ac99b	-0.0035825733
31	0xbb6ac99b	-0.0035825733
32	0xbb6ac99b	-0.0035825733
33	0xbb6ac99b	-0.0035825733
34	0xbb6ac99b	-0.0035825733
35	0xbb6ac99b	-0.0035825733
36	0xbb6ac99b	-0.0035825733
37	0xbb6ac99b	-0.0035825733
38	0xbb6ac99b	-0.0035825733
39	0xbb6ac99b	-0.0035825733
40	0xbb6ac99b	-0.0035825733
41	0xbb6ac99b	-0.0035825733
42	0xbb6ac99b	-0.0035825733
43	0xbb6ac99b	-0.0035825733
44	0xbb6ac99b	-0.0035825733
45	0xbb6ac99b	-0.0035825733
46	0xbb6ac99b	-0.0035825733
47	0xbb6ac99b	-0.0035825733
48	0xbb6ac99b	-0.0035825733
49	0xbb6ac99b	-0.0035825733
50	0xbb6ac99b	-0.0035825733
51	0xbb6ac99b	-0.0035825733
52	0xbb6ac99b	-0.0035825733
53	0xbb6ac99b	-0.0035825733
54	0xbb6ac99b	-0.0035825733
55	0xbb6ac99b	-0.0035825733
56	0xbb6ac99b	-0.0035825733
57	0xbb6ac99b	-0.0035825733
58	0xbb6ac99b	-0.0035825733
59	0xbb6ac99b	-0.0035825733
60	0xbb6ac99b	-0.0035825733
61	0xbb6ac99b	-0.0035825733
62	0xbb6ac99b	-0.0035825733
63	0xbb6ac99b	-0.0035825733
64	0xbb6ac99b	-0.0035825733
65	0xbb6ac99b	-0.0035825733
66	0xbb6ac99b	-0.0035825733
67	0xbb6ac99b	-0.0035825733
68	0xbb69aec5	-0.003565715
69	0xbb68e482	-0.0035536592
70	0xbb6a61d2	-0.0035763872
71	0xbb6a4d96	-0.0035751811
72	0xbb685991	-0.0035453776
73	0xbb6828b1	-0.0035424645
74	0xbb6ac965	-0.0035825607
75	0xbb6ac99b	-0.0035825733
76	0xbb6ac99b	-0.0035825733
77	0xbb6ac99b	-0.0035825733
78	0xbb6ac99b	-0.0035825733
79	0xbb6ac99b	-0.0035825733
80	0xbb6ac99b	-0.0035825733
81	0xbb6ac99b	-0.0035825733
82	0xbb6ac99b	-0.0035825733
83	0xbb6ac99b	-0.0035825733
84	0xbb6ac99b	-0.0035825733
85	0xbb6ac99b	-0.0035825733
86	0xbb6ac99b	-0.0035825733
87	0xbb6ac99b	-0.0035825733
88	0xbb6ac99b	-0.0035825733
89	0xbb6ac99b	-0.0035825733
90	0xbb6ac99b	-0.0035825733
91	0xbb6ac99b	-0.0035825733
92	0xbb6a460c	-0.0035747318
93	0xbb682dd5	-0.0035427709
94	0xbb690f8b	-0.0035562243
95	0xbb675cae	-0.0035303044
96	0xbb664bbb	-0.0035140354
97	0xbb637a6d	-0.0034710423
98	0xbb509a84	-0.003183038
99	0xbb3a6527	-0.002844164
100	0xbb3b5a53	-0.0028587773
101	0xbb4b3ffa	-0.0031013475
102	0xbb4f190e	-0.0031600627
103	0xbb5d1966	-0.0033737062
104	0xbb670731	-0.003525209
105	0xbb82b109	-0.0039883894
106	0xbb91b8b2	-0.004447066
107	0xbb9571bc	-0.0045606773
108	0xbb8812e5	-0.004152643
109	0xbb6ac99b	-0.0035825733
110	0xbb6ac99b	-0.0035825733
111	0xbb6ac99b	-0.0035825733
112	0xbb6ac99b	-0.0035825733
113	0xbb6ac99b	-0.0035825733
114	0xbb6ac99b	-0.0035825733
115	0xbb6ac9a3	-0.0035825751
116	0xbb6ac99d	-0.0035825737
117	0xbb6ac99f	-0.0035825742
118	0xbb6abdcc	-0.0035818694
119	0xbb52e121	-0.0032177644
120	0xbad1e082	-0.0016012343
121	0xbab32e5a	-0.001367043
122	0xbab533d1	-0.0013824647
123	0xbac70ccb	-0.0015186308
124	0xbb093a11	-0.0020939151
125	0xbb027c0d	-0.0019910366
126	0xbb1f6bbb	-0.0024325687
127	0xbb4fafa9	-0.0031690395
128	0xbb6608e9	-0.0035100526
129	0xbb637f52	-0.003471334
130	0xbb884c83	-0.0041595115
131	0xbbacfcbb	-0.0052791513
132	0xbb9c3f0a	-0.004768257
133	0xbb968ce8	-0.004594434
134	0xbbb15217	-0.005411397
135	0xbb9ceaa0	-0.0047887117
136	0xbb944e37	-0.0045259255
137	0xbb6ac987	-0.0035825686
138	0xbb6ac99b	-0.0035825733
139	0xbb6ac99b	-0.0035825733
140	0xbb6ac99b	-0.0035825733
141	0xbb6ac99b	-0.0035825733
142	0xbb6ac99b	-0.0035825733
143	0xbb6ac9c5	-0.003582583
144	0xbb6ac9b9	-0.0035825802
145	0xbb6ad015	-0.0035829593
146	0xbb53022b	-0.0032197337
147	0xbaec1240	-0.001801081
148	0xba978d96	-0.0011562582
149	0x378cee70	1.6800332e-05
150	0x3b11fea1	0.0022277015
151	0x3b7b575c	0.003835163
152	0x3b9ddf32	0.0048178667
153	0x3b5f9b33	0.0034119606
154	0x3b01692a	0.001974652
155	0x39ec3730	0.00045054546
156	0xb99e9265	-0.0003024518
157	0xbb76a1da	-0.0037633092
158	0xbbfa0609	-0.007630114
159	0xbbb3f537	-0.0054918784
160	0xbb8fbc2e	-0.0043864464
161	0xbba917b2	-0.0051602954
162	0xbbb9989d	-0.005663945
163	0xbb7403d8	-0.0037233736
164	0xbb739073	-0.0037164956
165	0xbb6bad8a	-0.0035961592
166	0xbb6adb1c	-0.0035836166
167	0xbb6ac99b	-0.0035825733
168	0xbb6ac99b	-0.0035825733
169	0xbb6ac99b	-0.0035825733
170	0xbb6ac99b	-0.0035825733
171	0xbb6ac9b1	-0.0035825784
172	0xbb6acbea	-0.0035827109
173	0xbb6ae2f3	-0.0035840839
174	0xbb419884	-0.002954037
175	0xba2bf0e6	-0.0006559029
176	0x3b302f63	0.0026883713
177	0x3b6720b9	0.0035267307
178	0x3b81ba8a	0.003959005
179	0x3b4163c7	0.0029508935
180	0x3a10bca6	0.0005521275
181	0xbabaf15e	-0.0014262607
182	0xbb1cb454	-0.0023911195
183	0xbb23f365	-0.00250169
184	0xbb10be44	-0.0022086063
185	0xba9fff55	-0.0012206832
186	0xb937d21b	-0.0001753051
187	0xbb124edd	-0.0022324838
188	0xbb498a80	-0.0030752718
189	0xbb8bcc3e	-0.004266291
190	0xbb9f4096	-0.004859994
191	0xbb84d8a5	-0.0040541464
192	0xbb6dfe0c	-0.0036314754
193	0xbb6c58ca	-0.0036063665
194	0xbb6b84da	-0.003593734
195	0xbb6ac99b	-0.0035825733
196	0xbb6ac99b	-0.0035825733
197	0xbb6acb34	-0.0035826685
198	0xbb6a3cbb	-0.0035741765
199	0xbb6a037e	-0.0035707648
200	0xbb6a7474	-0.0035774978
201	0xbb6a730f	-0.0035774147
202	0xbb278eeb	-0.0025567363
203	0x3a6f2709	0.0009122943
204	0x3b0c2df0	0.0021389686
205	0x3a8a1b0f	0.0010536629
206	0xba452f8b	-0.0007522038
207	0xbb2aa0b5	-0.002603573
208	0xbafd7592	-0.0019337407
209	0xbb131c58	-0.0022447314
210	0xbb33e203	-0.0027447946
211	0xbb855033	-0.0040683984
212	0x39ca346f	0.00038567508
213	0x3ad3bc08	0.001615406
214	0x3b519aa3	0.003198304
215	0x3b2d1404	0.0026409635
216	0xbb55b223	-0.0032607398
217	0xbb8f10bc	-0.0043660086
218	0xbb9f2a01	-0.004857302
219	0xbb6947aa	-0.0035595694
220	0xbb7755a1	-0.0037740248
221	0xbb716042	-0.0036831056
222	0xbb6f06c9	-0.003647255
223	0xbb6ac99b	-0.0035825733
224	0xbb6ac99b	-0.0035825733
225	0xbb6acc1e	-0.003582723
226	0xbb68fe6a	-0.0035552033
227	0xbb691083	-0.003556282
228	0xbb6906de	-0.0035557072
229	0xbb679697	-0.0035337561
230	0xbb1acd50	-0.002362091
231	0x3a0a7ec6	0.0005283173
232	0xbaf35d39	-0.0018567211
233	0xbb59c93c	-0.0033231517
234	0xbb5100b5	-0.003189129
235	0xbb4dc8c4	-0.0031400183
236	0xbadffb9f	-0.0017088539
237	0xba51af55	-0.0007998844
238	0xba505381	-0.00079470134
239	0xb997e0af	-0.00028968367
240	0xb939f831	-0.00017735433
241	0xb9b0f466	-0.00033751427
242	0xbabdca3d	-0.0014479827
243	0x3a54b350	0.0008113878
244	0xbb523e92	-0.0032080752
245	0xbba47168	-0.005018402
246	0xbb88e1fc	-0.00417733
247	0xbb657d14	-0.003501718
248	0xbb756d4e	-0.0037449184
249	0xbb6de6cc	-0.0036300896
250	0xbb6c91ff	-0.0036097763
251	0xbb6ac99b	-0.0035825733
252	0xbb6ac99b	-0.0035825733
253	0xbb6acc7d	-0.003582745
254	0xbb69fcb9	-0.0035703613
255	0xbb695d39	-0.0035608544

exp_avg_sq f4 [32, 784]
0	0x39c5418a	0.00037623598
1	0x39c5418a	0.00037623598
2	0x39c5418a	0.00037623598
3	0x39c5418a	0.00037623598
4	0x39c5418a	0.00037623598
5	0x39c5418a	0.00037623598
6	0x39c5418a	0.00037623598
7	0x39c5418a	0.00037623598
8	0x39c5418a	0.00037623598
9	0x39c5418a	0.00037623598
10	0x39c5418a	0.00037623598
11	0x39c5418a	0.00037623598
12	0x39c5418a	0.00037623598
13	0x39c5418a	0.00037623598
14	0x39c5418a	0.00037623598
15	0x39c5418a	0.00037623598
16	0x39c5418a	0.00037623598
17	0x39c5418a	0.00037623598
18	0x39c5418a	0.00037623598
19	0x39c5418a	0.00037623598
20	0x39c5418a	0.00037623598
21	0x39c5418a	0.00037623598
22	0x39c5418a	0.00037623598
23	0x39c5418a	0.00037623598
24	0x39c5418a	0.00037623598
25	0x39c5418a	0.00037623598
26	0x39c5418a	0.00037623598
27	0x39c5418a	0.00037623598
28	0x39c5418a	0.00037623598
29	0x39c5418a	0.00037623598
30	0x39c5418a	0.00037623598
31	0x39c5418a	0.00037623598
32	0x39c5418a	0.00037623598
33	0x39c5418a	0.00037623598
34	0x39c5418a	0.00037623598
35	0x39c5418a	0.00037623598
36	0x39c5418a	0.00037623598
37	0x39c5418a	0.00037623598
38	0x39c5418a	0.00037623598
39	0x39c5418a	0.00037623598
40	0x39c5418a	0.00037623598
41	0x39c5418a	0.00037623598
42	0x39c5411d	0.0003762328
43	0x39c5412d	0.00037623328
44	0x39c54161	0.0003762348
45	0x39c5418a	0.00037623598
46	0x39c5418a	0.00037623598
47	0x39c5418b	0.000376236
48	0x39c54192	0.00037623622
49	0x39c5418b	0.000376236
50	0x39c5418a	0.00037623598
51	0x39c5418a	0.00037623598
52	0x39c5418a	0.00037623598
53	0x39c5418a	0.00037623598
54	0x39c5418a	0.00037623598
55	0x39c5418a	0.00037623598
56	0x39c5418a	0.00037623598
57	0x39c5418a	0.00037623598
58	0x39c5418a	0.00037623598
59	0x39c5418b	0.000376236
60	0x39c5418a	0.00037623598
61	0x39c5418a	0.00037623598
62	0x39c5418a	0.00037623598
63	0x39c5418a	0.00037623598
64	0x39c5403b	0.00037622623
65	0x39c53575	0.00037614597
66	0x39c53c92	0.00037619896
67	0x39c53791	0.00037616168
68	0x39c52ae6	0.0003760673
69	0x39c52705	0.0003760384
70	0x39c4b4dd	0.00037518787
71	0x39c542dc	0.00037624582
72	0x39c4a014	0.000375033
73	0x39c49a9b	0.00037499223
74	0x39c4eca6	0.0003756035
75	0x39c516c1	0.0003759172
76	0x39c55960	0.00037641358
77	0x39c52c5f	0.00037607827
78	0x39c528e1	0.00037605225
79	0x39c52cdd	0.00037608194
80	0x39c5418a	0.00037623598
81	0x39c5418a	0.00037623598
82	0x39c5418a	0.00037623598
83	0x39c5418a	0.00037623598
84	0x39c5418a	0.00037623598
85	0x39c5418a	0.00037623598
86	0x39c5418a	0.00037623598
87	0x39c54199	0.00037623642
88	0x39c54197	0.00037623636
89	0x39c54140	0.00037623383
90	0x39c53e1c	0.00037621043
91	0x39c5345f	0.00037613788
92	0x39c45b4c	0.00037452055
93	0x39c27036	0.00037086167
94	0x39c029a5	0.0003665212
95	0x39bee2d0	0.00036408613
96	0x39c123bf	0.00036838462
97	0x39be2ce5	0.00036273073
98	0x39bd16a5	0.0003606576
99	0x39bd5ba4	0.00036117167
100	0x39bc4d8d	0.00035915934
101	0x39ba6ffd	0.00035560122
102	0x39bc8e34	0.00035964104
103	0x39bf724f	0.00036515525
104	0x39c251e8	0.00037063588
105	0x39c2128e	0.00037016388
106	0x39c26e0e	0.0003708456
107	0x39c39716	0.00037305866
108	0x39c2bec0	0.00037144683
109	0x39c5414f	0.00037623427
110	0x39c5418a	0.00037623598
111	0x39c5418a	0.00037623598
112	0x39c5418a	0.00037623598
113	0x39c5418a	0.00037623598
114	0x39c5417b	0.00037623555
115	0x39c53007	0.0003761055
116	0x39c53798	0.0003761619
117	0x39c4470d	0.0003743697
118	0x39c38793	0.0003729431
119	0x39c236d8	0.00037043425
120	0x39bb6201	0.00035740438
121	0x39b6a470	0.0003483626
122	0x39b5421f	0.00034572274
123	0x39afd654	0.00033538288
124	0x39a553bd	0.00031533642
125	0x39a569d2	0.00031550095
126	0x39a48b67	0.0003138438
127	0x39a17e25	0.00030802298
128	0x39a1a762	0.00030833023
129	0x39a718be	0.00031871157
130	0x39a97e6d	0.00032328386
131	0x39ae66ce	0.00033264462
132	0x39b729e7	0.000349357
133	0x39bb7344	0.000357533
134	0x39bf897c	0.00036532793
135	0x39c51a50	0.00037594372
136	0x39c6011a	0.00037766324
137	0x39c53566	0.00037614553
138	0x39c5418e	0.0003762361
139	0x39c5418a	0.00037623598
140	0x39c5418a	0.00037623598
141	0x39c5418a	0.00037623598
142	0x39c54192	0.00037623622
143	0x39c52391	0.00037601267
144	0x39c4694b	0.00037462483
145	0x39c1611b	0.00036884178
146	0x39bdfb3a	0.00036236068
147	0x39ba0e1d	0.000354872
148	0x39af0766	0.00033384113
149	0x39a870e2	0.0003212756
150	0x39a3399c	0.00031132705
151	0x399ab6c7	0.0002950935
152	0x3999d5c6	0.00029341708
153	0x3991ec1f	0.0002783248
154	0x398cac6b	0.00026831342
155	0x3987be93	0.00025891195
156	0x39894b69	0.0002618686
157	0x398b2185	0.0002653712
158	0x39944fe1	0.00028288274
159	0x399d1ddd	0.00029967623
160	0x39a813d7	0.0003205824
161	0x39b0c133	0.0003371328
162	0x39b5e1ee	0.0003469134
163	0x39becb58	0.00036391127
164	0x39c44385	0.0003743434
165	0x39c4fc9f	0.0003757225
166	0x39c5292f	0.00037605452
167	0x39c5418a	0.00037623598
168	0x39c5418a	0.00037623598
169	0x39c5418a	0.00037623598
170	0x39c532f2	0.00037612725
171	0x39c5197c	0.00037593755
172	0x39c38484	0.0003729203
173	0x39bef676	0.00036423252
174	0x39bd5635	0.00036113118
175	0x39b43035	0.00034368192
176	0x39a96188	0.00032306858
177	0x399e3679	0.00030176694
178	0x3996b324	0.000287437
179	0x398d2140	0.0002691839
180	0x39803083	0.00024450207
181	0x397b8356	0.00023986152
182	0x39785e33	0.00023686215
183	0x39784a05	0.00023678697
184	0x397b2f98	0.00023954955
185	0x39814441	0.0002465565
186	0x3984a289	0.000252981
187	0x3994066f	0.00028233553
188	0x399fecba	0.00030503218
189	0x39af06d9	0.00033383703
190	0x39b4429d	0.00034381906
191	0x39bcc980	0.00036008283
192	0x39c1d4a8	0.0003697027
193	0x39c439de	0.00037427148
194	0x39c50e2b	0.00037585324
195	0x39c5415c	0.00037623465
196	0x39c5418a	0.00037623598
197	0x39c54173	0.00037623532
198	0x39c536d2	0.00037615612
199	0x39c51ce0	0.00037596282
200	0x39c234b9	0.00037041845
201	0x39bce2f4	0.00036027248
202	0x39b7158c	0.00034920534
203	0x39b018c9	0.00033587802
204	0x39aa4b02	0.00032480812
205	0x39953032	0.00028455403
206	0x398ba396	0.00026634027
207	0x397bebc0	0.00024025049
208	0x396ff875	0.00022885374
209	0x39749255	0.00023324166
210	0x39777e37	0.00023602774
211	0x3977e6ba	0.00023641708
212	0x397a39ad	0.00023863344
213	0x3988ae91	0.00026070004
214	0x39847ece	0.0002527148
215	0x398cfd2e	0.00026891514
216	0x399c8e4e	0.00029860664
217	0x39b11113	0.00033772792
218	0x39b92c5d	0.00035319003
219	0x39bd846d	0.00036147554
220	0x39c071c5	0.0003670586
221	0x39c51414	0.00037589727
222	0x39c5366c	0.00037615316
223	0x39c540f0	0.0003762315
224	0x39c5418a	0.00037623598
225	0x39c5400c	0.00037622487
226	0x39c514a9	0.0003759016
227	0x39c44230	0.00037433347
228	0x39c23613	0.00037042852
229	0x39bd8e0f	0.0003615473
230	0x39baf906	0.00035662221
231	0x39ae794f	0.00033278248
232	0x39ace67b	0.00032978118
233	0x3996d4db	0.0002876882
234	0x398e252a	0.0002711204
235	0x3984462f	0.00025229293
236	0x3979c7fb	0.00023820989
237	0x39774dab	0.00023584689
238	0x39837f90	0.0002508131
239	0x3985425f	0.00025417187
240	0x39882a6b	0.00025971545
241	0x39879157	0.00025857493
242	0x39857fa2	0.0002546283
243	0x398b2bcc	0.00026544777
244	0x399fae89	0.00030456882
245	0x39afd7b9	0.00033539327
246	0x39bbcced	0.000358201
247	0x39bec831	0.00036388778
248	0x39c228a9	0.00037032858
249	0x39c501a1	0.00037575982
250	0x39c54b83	0.0003763103
251	0x39c54100	0.00037623197
252	0x39c541bc	0.00037623744
253	0x39c54052	0.0003762269
254	0x39c5127a	0.00037588534
255	0x39c44c90	0.00037441077

exp_avg f4 [32]
0	0x3b6acc4e	0.0035827341
1	0x00000004	6e-45
2	0x3b43fa96	0.0029904
3	0x00000004	6e-45
4	0xbb5c295e	-0.0033593993
5	0xbaa6f29f	-0.0012737102
6	0x00000004	6e-45
7	0x3b947500	0.004530549
8	0xba6ca7f5	-0.0009027713
9	0x00000004	6e-45
10	0x00000004	6e-45
11	0x00000004	6e-45
12	0xbac32680	-0.0014888793
13	0x00000004	6e-45
14	0x00000004	6e-45
15	0xba563886	-0.0008171875
16	0x00000004	6e-45
17	0xba55299f	-0.0008131507
18	0x00000004	6e-45
19	0x00000004	6e-45
20	0x00000004	6e-45
21	0x00000004	6e-45
22	0x39f42cb8	0.00046572625
23	0x00000004	6e-45
24	0x00000004	6e-45
25	0x00000004	6e-45
26	0x3a7338ab	0.00092781585
27	0x3abc77ab	0.0014378926
28	0x00000004	6e-45
29	0x00000004	6e-45
30	0x00000004	6e-45
31	0xbad4d57a	-0.0016237937

exp_avg_sq f4 [32]
0	0x39c5403e	0.00037622632
1	0x2a72fdde	2.1581996e-13
2	0x396eb7ba	0.00022765892
3	0x2817ba5c	8.422594e-15
4	0x390b324e	0.00013274813
5	0x3939308d	0.00017661061
6	0x27026b71	1.8099368e-15
7	0x397b21fc	0.00023949886
8	0x398d33d3	0.00026932228
9	0x24c2f243	8.4544496e-17
10	0x26b1d60e	1.2339862e-15
11	0x24deeed1	9.6681724e-17
12	0x3923d9b5	0.00015625994
13	0x25e09f6b	3.8965832e-16
14	0x23ad5a20	1.8794867e-17
15	0x392f37aa	0.00016710037
16	0x2729273d	2.3474733e-15
17	0x39631a47	0.00021658196
18	0x29bc73a6	8.368939e-14
19	0x27b87463	5.1196446e-15
20	0x2742822b	2.6993473e-15
21	0x27dcc5b4	6.1276617e-15
22	0x39864532	0.00025610026
23	0x24b10d5e	7.678416e-17
24	0x26294d37	5.87383e-16
25	0x25aff5d7	3.0524248e-16
26	0x398d80c6	0.0002698956
27	0x393e794d	0.00018165
28	0x288a872c	1.53797e-14
29	0x2699ec75	1.06806e-15
30	0x22f58183	6.654451e-18
31	0x394192ab	0.00018460552

exp_avg f4 [10, 32]
0	0x3c3101cf	0.010803654
1	0x00000004	6e-45
2	0x3c961068	0.01831837
3	0x00000004	6e-45
4	0xbbc73332	-0.006079101
5	0x3c8eeb31	0.017446132
6	0x80000004	-6e-45
7	0x3cd84fa9	0.026405172
8	0x3ad6ae2e	0.0016378814
9	0x00000004	6e-45
10	0x80000004	-6e-45
11	0x00000004	6e-45
12	0x3b8dfcc7	0.004333112
13	0x00000004	6e-45
14	0x00000004	6e-45
15	0xbb64d5bf	-0.0034917442
16	0x00000004	6e-45
17	0xbb705e82	-0.0036677425
18	0x00000004	6e-45
19	0x80000004	-6e-45
20	0x00000004	6e-45
21	0x00000004	6e-45
22	0x3c419962	0.0118163545
23	0x00000004	6e-45
24	0x00000004	6e-45
25	0x00000004	6e-45
26	0x398d6e64	0.00026975863
27	0x3d806a33	0.06270256
28	0x00000004	6e-45
29	0x00000004	6e-45
30	0x80000004	-6e-45
31	0xbbfe6991	-0.0077640493
32	0x3cbcc41b	0.02304273
33	0x80000004	-6e-45
34	0x3b5cb3e4	0.003367656
35	0x80000004	-6e-45
36	0x3d922198	0.07135314
37	0x3cc2ca24	0.023778029
38	0x00000004	6e-45
39	0x3ce4b68d	0.027919078
40	0x3d9ae6ab	0.07563528
41	0x00000004	6e-45
42	0x00000004	6e-45
43	0x00000004	6e-45
44	0x3cd4c7af	0.025974123
45	0x00000004	6e-45
46	0x00000004	6e-45
47	0x3a230243	0.00062182936
48	0x00000004	6e-45
49	0x3b9e34d4	0.004828075
50	0x00000004	6e-45
51	0x80000004	-6e-45
52	0x80000004	-6e-45
53	0x00000004	6e-45
54	0x3d0ae93f	0.033913847
55	0x00000004	6e-45
56	0x00000004	6e-45
57	0x00000004	6e-45
58	0x3d76474e	0.060126595
59	0x3bfe940c	0.0077691134
60	0x80000004	-6e-45
61	0x00000004	6e-45
62	0x00000004	6e-45
63	0xba2d6496	-0.0006614415
64	0xbc8a6d45	-0.016897807
65	0x00000004	6e-45
66	0xbaffdd5a	-0.0019520924
67	0x00000004	6e-45
68	0x3be0a6aa	0.0068558054
69	0x3c32b175	0.010906567
70	0x80000004	-6e-45
71	0x3d120e7d	0.03565835
72	0x3ca371c2	0.019951705
73	0x00000004	6e-45
74	0x80000004	-6e-45
75	0x00000004	6e-45
76	0x3c4c04a6	0.01245228
77	0x00000004	6e-45
78	0x00000004	6e-45
79	0xbbe41dfe	-0.006961583
80	0x80000004	-6e-45
81	0xbbac7c77	-0.005263861
82	0x00000004	6e-45
83	0x80000004	-6e-45
84	0x00000004	6e-45
85	0x80000004	-6e-45
86	0xbb97f3a4	-0.0046371985
87	0x00000004	6e-45
88	0x80000004	-6e-45
89	0x00000004	6e-45
90	0xbb612611	-0.0034354965
91	0xbd831c6a	-0.06401904
92	0x80000004	-6e-45
93	0x00000004	6e-45
94	0x00000004	6e-45
95	0x3a6f3348	0.0009124768
96	0x3d1393bb	0.03602956
97	0x80000004	-6e-45
98	0x3d9eef3b	0.07760473
99	0x00000004	6e-45
100	0x3cfafe9d	0.030638987
101	0x3d4e6bbe	0.05039572
102	0x00000004	6e-45
103	0x3de89697	0.11356848
104	0x394ec888	0.00019720395
105	0x00000004	6e-45
106	0x00000004	6e-45
107	0x00000004	6e-45
108	0x3d820a1c	0.063495845
109	0x00000004	6e-45
110	0x00000004	6e-45
111	0x3d0e895d	0.03479897
112	0x00000004	6e-45
113	0x3b59f1e7	0.0033255757
114	0x80000004	-6e-45
115	0x00000004	6e-45
116	0x00000004	6e-45
117	0x00000004	6e-45
118	0x3da94271	0.08264626
119	0x00000004	6e-45
120	0x00000004	6e-45
121	0x00000004	6e-45
122	0x3becb14c	0.007223284
123	0x3da9827f	0.08276843
124	0x80000004	-6e-45
125	0x00000004	6e-45
126	0x80000004	-6e-45
127	0x3cd0a318	0.025468394
128	0x3af027e0	0.001832243
129	0x00000004	6e-45
130	0xbc7bbdb8	-0.015365057
131	0x80000004	-6e-45
132	0xbc13e42a	-0.0090265665
133	0xbccd1b31	-0.02503738
134	0x00000004	6e-45
135	0xbbdadd24	-0.006679194
136	0xbd1eb971	-0.03875107
137	0x80000004	-6e-45
138	0x00000004	6e-45
139	0x80000004	-6e-45
140	0xbcd817c1	-0.026378514
141	0x00000004	6e-45
142	0x00000004	6e-45
143	0xbba6ffb7	-0.0050964016
144	0x80000004	-6e-45
145	0xbc420133	-0.011841106
146	0x00000004	6e-45
147	0x00000004	6e-45
148	0x00000004	6e-45
149	0x00000004	6e-45
150	0xbcf699de	-0.030102666
151	0x80000004	-6e-45
152	0x00000004	6e-45
153	0x00000004	6e-45
154	0xbbe8780d	-0.0070943893
155	0x3a6a48ef	0.00089372596
156	0x00000004	6e-45
157	0x80000004	-6e-45
158	0x00000004	6e-45
159	0xbc917581	-0.017756226
160	0xbcce1221	-0.025155129
161	0x00000004	6e-45
162	0xba7cfe08	-0.0009650891
163	0x80000004	-6e-45
164	0x3d1300ee	0.03588956
165	0x3b93b807	0.0045080218
166	0x00000004	6e-45
167	0xbc0738a0	-0.008253247
168	0xbbd2f068	-0.00643735
169	0x00000004	6e-45
170	0x00000004	6e-45
171	0x00000004	6e-45
172	0xbac0a259	-0.0014696821
173	0x80000004	-6e-45
174	0x80000004	-6e-45
175	0x3ca4fff8	0.020141587
176	0x00000004	6e-45
177	0xb9aafb11	-0.00032611986
178	0x00000004	6e-45
179	0x80000004	-6e-45
180	0x80000004	-6e-45
181	0x80000004	-6e-45
182	0x3c61a069	0.013771155
183	0x00000004	6e-45
184	0x80000004	-6e-45
185	0x00000004	6e-45
186	0xbb907bdc	-0.0044092964
187	0xbd5da30d	-0.054110575
188	0x00000004	6e-45
189	0x80000004	-6e-45
190	0x00000004	6e-45
191	0x3c1fe1d0	0.009758428
192	0xb83b435f	-4.464702e-05
193	0x80000004	-6e-45
194	0xbba5971e	-0.005053415
195	0x00000004	6e-45
196	0xbda2ae1e	-0.079433665
197	0xbcbe9e0d	-0.023268724
198	0x00000004	6e-45
199	0xbd8d4127	-0.068971924
200	0xbb50087f	-0.0031743345
201	0x00000004	6e-45
202	0x00000004	6e-45
203	0x00000004	6e-45
204	0xbd30a46e	-0.043125562
205	0x00000004	6e-45
206	0x00000004	6e-45
207	0xbd6a697a	-0.057229497
208	0x00000004	6e-45
209	0xbcf956b2	-0.030436847
210	0x80000004	-6e-45
211	0x00000004	6e-45
212	0x80000004	-6e-45
213	0x00000004	6e-45
214	0xbc8a894c	-0.016911171
215	0x00000004	6e-45
216	0x00000004	6e-45
217	0x00000004	6e-45
218	0xbb0c5f58	-0.0021419134
219	0xbc4f36ae	-0.012647314
220	0x80000004	-6e-45
221	0x00000004	6e-45
222	0x00000004	6e-45
223	0xbcdc42e4	-0.026887365
224	0xbb9511bc	-0.0045492332
225	0x80000004	-6e-45
226	0xbcf3b9db	-0.029751709
227	0x00000004	6e-45
228	0x3d0a2811	0.033729617
229	0xbd0d15e3	-0.0344447
230	0x00000004	6e-45
231	0xbc1d672d	-0.009607119
232	0xbc5fc14e	-0.013656927
233	0x80000004	-6e-45
234	0x00000004	6e-45
235	0x00000004	6e-45
236	0xbd25d52c	-0.0404865
237	0x00000004	6e-45
238	0x00000004	6e-45
239	0x3d0beb48	0.03415993
240	0x80000004	-6e-45
241	0x3c44c303	0.012009385
242	0x80000004	-6e-45
243	0x00000004	6e-45
244	0x00000004	6e-45
245	0x80000004	-6e-45
246	0x3a88ad49	0.001042762
247	0x00000004	6e-45
248	0x00000004	6e-45
249	0x80000004	-6e-45
250	0xbd22378f	-0.039603766
251	0xbc5fee60	-0.013667673
252	0x00000004	6e-45
253	0x00000004	6e-45
254	0x00000004	6e-45
255	0x3c3b6bea	0.011439303

exp_avg_sq f4 [10, 32]
0	0x3a039d3b	0.00050206826
1	0x2a7f77af	2.2690073e-13
2	0x3c8e138d	0.017343307
3	0x28272068	9.277389e-15
4	0x3d0138f9	0.031548474
5	0x3d2b3778	0.041800946
6	0x24080e32	2.9502323e-17
7	0x3d31085c	0.043220863
8	0x3b6f5397	0.003651833
9	0x2468119b	5.0321893e-17
10	0x26bad3b3	1.2963724e-15
11	0x223d9971	2.5695508e-18
12	0x3c1fced1	0.009753899
13	0x25176538	1.3131456e-16
14	0x220c1cd3	1.8988797e-18
15	0x3d1f797d	0.03893422
16	0x2631274a	6.146246e-16
17	0x3c42f41d	0.011899021
18	0x29d97ab5	9.658022e-14
19	0x273f1156	2.6515973e-15
20	0x22e3ab99	6.171016e-18
21	0x263d4e73	6.5678866e-16
22	0x3d2dc155	0.042420704
23	0x2292ffa4	3.984405e-18
24	0x2535cf23	1.5769428e-16
25	0x2363447d	1.2320198e-17
26	0x3aa0ff05	0.0012283033
27	0x3d7d6a0a	0.061868705
28	0x2924ab56	3.6563925e-14
29	0x25f7ded0	4.2998653e-16
30	0x25958639	2.5938333e-16
31	0x3b887429	0.004164238
32	0x3bb29cb9	0.0054508117
33	0x2af6bbb6	4.382863e-13
34	0x3c193f90	0.009353533
35	0x28f9a1a9	2.7714662e-14
36	0x3d61c119	0.055115793
37	0x3c207870	0.00979434
38	0x22dcdb1a	5.9863102e-18
39	0x3db99841	0.09062243
40	0x3d07cf1c	0.0331565
41	0x24c79cf6	8.6568395e-17
42	0x24d468b9	9.211775e-17
43	0x237161a1	1.308531e-17
44	0x3c035433	0.00801568
45	0x25051635	1.1543435e-16
46	0x226a2b12	3.1735715e-18
47	0x39cec139	0.00039435344
48	0x2657b275	7.4834964e-16
49	0x3b4b6eac	0.0031041307
50	0x29b20a08	7.906528e-14
51	0x260b29bf	4.828189e-16
52	0x24d01c75	9.025383e-17
53	0x26a6909f	1.1557764e-15
54	0x3c7a8de7	0.015292621
55	0x2200ab7e	1.7438022e-18
56	0x25a57757	2.8703805e-16
57	0x23e31d84	2.462389e-17
58	0x3d38ce6f	0.045118745
59	0x3ca2adfe	0.019858357
60	0x29bba509	8.333097e-14
61	0x24732653	5.2724687e-17
62	0x24224e5f	3.5194533e-17
63	0x39d59d19	0.00040743573
64	0x3b8474e5	0.004042255
65	0x2b72d17b	8.6266384e-13
66	0x3d54a887	0.051918533
67	0x275fa0a8	3.1034559e-15
68	0x3d882e4d	0.06649456
69	0x3d2a691c	0.041604146
70	0x2505eab4	1.1615432e-16
71	0x3e18b825	0.14913996
72	0x3bd44713	0.0064781993
73	0x24bf3cd1	8.293607e-17
74	0x2650cb90	7.2440375e-16
75	0x22c23483	5.2639404e-18
76	0x3d6bd16d	0.05757277
77	0x25676a97	2.007217e-16
78	0x22290017	2.2903818e-18
79	0x3ca4fde7	0.020140601
80	0x2759a562	3.0204454e-15
81	0x3d387ee6	0.045042895
82	0x2aeb33df	4.1780379e-13
83	0x274e751a	2.8651724e-15
84	0x22a32c18	4.4227925e-18
85	0x26965c22	1.0433314e-15
86	0x3d877519	0.066141315
87	0x2265cec1	3.1144742e-18
88	0x276c18e0	3.2765064e-15
89	0x23f4199f	2.6465384e-17
90	0x3cd5431a	0.026032973
91	0x3d758379	0.059939835
92	0x298dfa6b	6.3050985e-14
93	0x2637d43b	6.3778505e-16
94	0x23857319	1.4468635e-17
95	0x3b7bfc92	0.0038450104
96	0x3d094323	0.033511292
97	0x2b62c8a4	8.0569774e-13
98	0x3dba6dda	0.09102984
99	0x27e6c89e	6.4055334e-15
100	0x3e1420b1	0.14465596
101	0x3d44c8cf	0.04804307
102	0x220fad1a	1.9471753e-18
103	0x3e5761b5	0.21033366
104	0x3c72bdf7	0.014815799
105	0x243cc683	4.0934148e-17
106	0x23ebdeef	2.5573167e-17
107	0x217f381d	8.6471626e-19
108	0x3d2825f5	0.041051824
109	0x2762983f	3.1446333e-15
110	0x21d0affb	1.414121e-18
111	0x3c5cec91	0.013484136
112	0x260620a6	4.6534836e-16
113	0x3bfc5d7f	0.0077015753
114	0x2b02f7a4	4.652895e-13
115	0x26b7fd59	1.2766846e-15
116	0x2307127a	7.322277e-18
117	0x25fd3d57	4.393007e-16
118	0x3e0beeac	0.13665265
119	0x21bec3aa	1.2926693e-18
120	0x250134ab	1.1206811e-16
121	0x23414153	1.0476384e-17
122	0x3d40bae8	0.047053248
123	0x3daa1487	0.083046965
124	0x2a030743	1.1637657e-13
125	0x25a69026	2.8894088e-16
126	0x257d1fb2	2.1954991e-16
127	0x3b952bff	0.004552364
128	0x3b86f20d	0.00411821
129	0x2b9af6eb	1.1010892e-12
130	0x3cd0bf2a	0.02548178
131	0x28a54bb2	1.8351508e-14
132	0x3e4d995a	0.2007803
133	0x3cb9cf58	0.022681877
134	0x2320a2c3	8.7080835e-18
135	0x3d43374e	0.047660165
136	0x3d56f6e7	0.05248156
137	0x25dc7b58	3.8247497e-16
138	0x2572fe60	2.107634e-16
139	0x259080b2	2.5067225e-16
140	0x3d6de913	0.058083605
141	0x2522e779	1.4129686e-16
142	0x2297c816	4.114048e-18
143	0x3d812180	0.06305218
144	0x24a336a0	7.078252e-17
145	0x3da161ee	0.07880007
146	0x2afbc8c0	4.4725855e-13
147	0x27321e66	2.4718941e-15
148	0x21e45a0d	1.5473717e-18
149	0x26cc93fb	1.4195454e-15
150	0x3e165ceb	0.14683883
151	0x259642d0	2.6066126e-16
152	0x260169b2	4.489911e-16
153	0x24495607	4.3657795e-17
154	0x3d2f6a3a	0.042825915
155	0x3b4b2782	0.003099889
156	0x2a64dcbf	2.0327055e-13
157	0x2711e64b	2.0247634e-15
158	0x2450bdf3	4.5263704e-17
159	0x3cc189c8	0.02362527
160	0x3cef8b05	0.029241094
161	0x2a2cd468	1.5350362e-13
162	0x3d600fab	0.054702442
163	0x27346b03	2.503803e-15
164	0x3e13ca49	0.14432634
165	0x3d22eade	0.039774768
166	0x22682bb0	3.146499e-18
167	0x3e1d1e63	0.15343623
168	0x3d2a4519	0.041569803
169	0x248d5a60	6.1302104e-17
170	0x2481a21a	5.621944e-17
171	0x227743c8	3.3510625e-18
172	0x3bb9b37b	0.0056671477
173	0x258a5a23	2.4000263e-16
174	0x25594a1c	1.8846859e-16
175	0x3d09476a	0.03351537
176	0x263ff43b	6.659743e-16
177	0x3c83d00e	0.01609042
178	0x29aa91fc	7.574841e-14
179	0x2687ce65	9.42345e-16
180	0x2424dd8e	3.5749495e-17
181	0x26b7ecff	1.2762414e-15
182	0x3d9101e0	0.07080436
183	0x21ab8f94	1.1625416e-18
184	0x25d118ca	3.6272518e-16
185	0x23ab6cf8	1.8586007e-17
186	0x3c0c8297	0.008576057
187	0x3dd1ab5d	0.10237763
188	0x28b77367	2.0367129e-14
189	0x26ea1dc7	1.6245083e-15
190	0x23616cf8	1.22203495e-17
191	0x3c6fe3ed	0.014641744
192	0x3a1131fc	0.0005538759
193	0x2acb3628	3.6097622e-13
194	0x3c0df824	0.008665118
195	0x28587bda	1.2017265e-14
196	0x3dbb6486	0.09150033
197	0x3c5406f0	0.012941107
198	0x22965998	4.0752443e-18
199	0x3dd13bab	0.10216459
200	0x3c8a4691	0.016879352
201	0x24acfdb6	7.502291e-17
202	0x23b40bff	1.952072e-17
203	0x21e1e5d4	1.5307428e-18
204	0x3c46bcf9	0.0121300155
205	0x2527a3de	1.4540461e-16
206	0x2202e748	1.7740725e-18
207	0x3d09a6a9	0.033606205
208	0x267aa26b	8.695629e-16
209	0x3d0b74de	0.034047
210	0x297efc42	5.661813e-14
211	0x2730679e	2.4481078e-15
212	0x237796ed	1.3421857e-17
213	0x266c430f	8.196983e-16
214	0x3bf0d3cd	0.0073494674
215	0x2209e47e	1.8687925e-18
216	0x255f152a	1.9349337e-16
217	0x23d15434	2.2695487e-17
218	0x3b725211	0.0036975185
219	0x3cbe9b1a	0.023267318
220	0x290cbb86	3.1248895e-14
221	0x260e29e2	4.932291e-16
222	0x22f78b8b	6.709723e-18
223	0x3c11a405	0.008889203
224	0x3b53385c	0.0032229638
225	0x2ad9508a	3.8602829e-13
226	0x3d3a508d	0.045486975
227	0x26ff196d	1.7701071e-15
228	0x3e22f717	0.1591457
229	0x3d185981	0.037194733
230	0x22dd5c9e	6.0000232e-18
231	0x3ce98d9c	0.028509907
232	0x3cd7adfd	0.026328081
233	0x24086c90	2.9582255e-17
234	0x23bcf51d	2.048681e-17
235	0x22568eb2	2.907795e-18
236	0x3da51d3f	0.08062219
237	0x27888e8e	3.790214e-15
238	0x227ef37a	3.4552314e-18
239	0x3d2db97c	0.04241322
240	0x269b1274	1.0760287e-15
241	0x3c43ec76	0.011958232
242	0x2a1279ab	1.3009617e-13
243	0x248e1f9e	6.1636245e-17
244	0x22bad616	5.0642073e-18
245	0x26abebcf	1.1929425e-15
246	0x3e3f93c9	0.1870872
247	0x234046c8	1.0423329e-17
248	0x259ce682	2.7217884e-16
249	0x26dc0ec1	1.5269566e-15
250	0x3d9f77a1	0.07786489
251	0x3d1fb500	0.038990974
252	0x28ed7237	2.6361818e-14
253	0x266e6cf0	8.2720475e-16
254	0x2327b9a2	9.0923974e-18
255	0x3bc9f91a	0.0061637284

exp_avg f4 [10]
0	0x3a65d2c8	0.00087670656
1	0x3b8ce723	0.0043000146
2	0x3b1125f7	0.0022147873
3	0x3bf28329	0.0074008894
4	0xba543f5a	-0.00080965983
5	0x3a756b7a	0.00093620236
6	0xbbb7b7cb	-0.0056066266
7	0xbb1086fd	-0.0022053116
8	0xbb663496	-0.0035126559
9	0xbb6b8f07	-0.0035943405

exp_avg_sq f4 [10]
0	0x39aa001e	0.00032425014
1	0x39c42052	0.00037408114
2	0x3a2b26e6	0.00065289286
3	0x3a599d4f	0.0008301334
4	0x3a378d01	0.0007001907
5	0x3a411e92	0.0007366921
6	0x39e49848	0.00043601007
7	0x3a32ffe3	0.0006828291
8	0x3a56688f	0.00081790326
9	0x3a83a4d7	0.0010043633
