code/assignment1/mnist-classifier/best-conv.pth (torch, 81565 bytes, 24 tensors)

layers.0.weight f4 [8, 1, 3, 3]
-0.23060068 0.6820282 0.44578215 0.6086329 0.30579025 0.4758549 0.73152983 0.651801
0.29234397 -0.66853327 0.9027489 0.50208235 0.2607979 0.48613936 0.32340014 0.31816602
0.23975362 -0.1169142 0.9595919 0.7382306 -0.594403 1.0228714 -0.2377584 -0.8452494
0.6109233 -0.028313968 -0.8399456 -0.48044702 -0.27841163 -0.7052736 -0.3621326 -0.27598405
-0.30009648 -0.52092403 -0.3747941 -0.38588288 0.52182895 0.51799464 0.6412189 0.3427758
0.31609485 -0.02613478 -0.98204106 -0.87362784 -0.32006973 0.02905304 -1.0522549 -0.5199149
1.172704 0.40634495 -0.069804065 0.30192164 -0.016164524 0.29016045 0.13667913 0.76493585
0.907351 -0.3822707 -0.3621627 0.7891326 -0.35671818 -0.63064 -0.5733161 0.22482821
-0.015566584 -0.5934021 -0.29094392 -0.24587521 -0.40102187 -0.2179532 -0.11441392 -0.6344143
00000000: 9622 6cbe 6699 2e3f 8f3d e43e 5ecf 1b3f
00000010: 8a90 9c3e 41a3 f33e 8a45 3b3f 6edc 263f
00000020: 1cae 953e ff24 2bbf 8d1a 673f 7888 003f
00000030: 4d87 853e 42e7 f83e b494 a53e a8e6 a23e
00000040: f981 753e b670 efbd d1a7 753f aefc 3c3f
00000050: cc2a 18bf 73ed 823f f076 73be 4462 58bf
00000060: 7865 1c3f b2f2 e7bc ad06 57bf 27fd f5be
00000070: f88b 8ebe d08c 34bf 7269 b9be c84d 8dbe
00000080: 3fa6 99be 475b 05bf 03e5 bfbe 7192 c5be
00000090: 9596 053f 4c9b 043f ec26 243f 4f80 af3e
000000a0: 2fd7 a13e 9b18 d6bc 0b67 7bbf 13a6 5fbf
000000b0: 2ee0 a3be a400 ee3c 4ab0 86bf 2519 05bf
000000c0: 2a1b 963f 720c d03e 6ff5 8ebd 7995 9a3e
000000d0: 776b 84bc e98f 943e 9df5 0b3e d6d2 433f
000000e0: 2848 683f fcb8 c3be 646d b9be 9804 4a3f
000000f0: c4a3 b6be 9f71 21bf d8c4 12bf 5e39 663e
00000100: fc0a 7fbc 33e9 17bf 9af6 94be b6c6 7bbe
00000110: bd52 cdbe 202f 5fbe d851 eabd fa68 22bf

layers.0.bias f4 [8]
0.44879448 0.91028863 0.6786791 -0.35317805 0.1364877 0.5264263 0.28940848 0.04225751
00000000: 64c8 e53e ad08 693f eabd 2d3f c1d3 b4be
00000010: 6ec3 0b3e e0c3 063f 592d 943e 3616 2d3d

layers.3.weight f4 [16, 8, 3, 3]
0.10554505 0.12328641 0.36252797 0.07749321 0.21408015 0.14953047 0.078664355 0.07199616
0.058956023 0.008409554 0.28369004 0.20036258 0.17119421 0.23090129 -0.021262644 0.029090505
0.14278014 -0.009807292 -0.439229 0.15282784 0.063004114 -0.056942888 0.22050497 -0.003839604
0.09599446 0.21441408 0.22574626 -0.183988 -0.23474854 -0.4164731 -0.1612394 -0.14834242
-0.11810296 -0.21166295 -0.3616237 -0.03429491 -0.18018089 -0.23085873 0.14534517 -0.07099679
-0.42508358 0.051775306 -0.47760853 -0.4534973 -0.4981446 0.08520361 0.24815202 -0.03537995
-0.23578131 -0.1285181 -0.1081654 -0.17073293 0.22569914 0.22674643 0.07173991 -0.2956494
0.13591968 -0.19986774 -0.14381829 0.2688725 -0.21422943 -0.30010802 -0.1007032 -0.16327545
-0.17835194 -0.40162238 -0.23956858 -0.21972363 0.00071806804 -0.1027632 -0.29188 -0.107447095
-0.11146587 0.08391511 -0.11462384 -0.11942268 -0.04666292 -0.06635437 0.09418723 -0.05631934
-0.12551947 -0.06202087 -0.025075436 -0.042260464 -0.042641334 -0.08969046 -0.032154966 -0.008395172
-0.06811051 -0.041531302 0.10146209 -0.10118683 -0.02634771 -0.08526688 -0.0032921887 -0.07089325
-0.09037758 0.043801967 -0.09821297 -0.063758776 0.082540676 0.077630036 -0.031784188 0.04265869
-0.04061852 0.0934313 0.01189782 -0.1323907 -0.04971534 -0.090295956 -0.059201416 -0.010414852
-0.042032167 0.049394812 0.05277957 0.08538323 -0.08201589 -0.09702669 -0.069352545 -0.07571388
-0.0021225149 -0.019237293 0.06961937 -0.006977284 -0.07103915 -0.063163 0.05600865 -0.12890057
-0.11101383 -0.08595938 -0.059909273 -0.07315256 0.07214154 0.048497744 0.032279268 -0.045233224
-0.078228235 -0.052340448 -0.03421033 -0.07563661 -0.02724875 -0.14028312 -0.091900595 -0.09741959
-0.1845249 -0.22469744 -0.23281373 -0.043159597 0.098188676 0.08731063 0.04967441 -0.1701247
-0.26266426 -0.07450234 -0.18729591 -0.10952669 -0.121463045 0.108001634 0.19604285 -0.004686482
0.016046584 -0.09318101 -0.08470491 -0.33978662 -0.28355548 -0.038956966 -0.10712163 0.19207393
0.14713459 0.21285504 -0.09492025 0.060389694 0.06454277 -0.07926663 -0.15683235 -0.30814442
-0.40514392 -0.3029 -0.21549505 -0.09225134 0.0750422 0.078716725 -0.066158295 0.07796823
0.03751615 0.5311554 0.39741364 0.5887378 0.3784648 0.11094805 0.10787916 0.33189765
0.277119 0.21598002 0.22693601 0.16618946 -0.0054645664 -0.0212374 0.15568043 0.057101153
-0.12509713 -0.07296736 -0.07089634 0.51798135 0.23027226 0.19948485 0.23180252 0.083734676
0.07060642 0.15976185 -0.12327615 -0.2660832 -0.12547828 -0.21782617 -0.06590573 0.1307944
0.034735292 -0.07801265 0.038620442 -0.16923682 -0.22541754 0.09979608 -0.1468209 -0.102615
0.30832195 0.057611067 -0.016275233 -0.11031032 -0.034146845 0.007063966 0.035129428 -0.09834832
0.022859102 0.33721578 -0.09428492 -0.22975639 -0.11379152 -0.1798438 -0.06759728 -0.082763955
-0.1225309 -0.052353498 0.06670579 -0.16378054 -0.3317901 -0.32922506 0.06815756 -0.23099814
-0.36612386 0.14440027 0.021753475 -0.14789805 0.24712437 0.17098565 -0.009735273 0.33280313
00000000: 0128 d83d 967d fc3d 449d b93e c3b4 9e3d
00000010: d437 5b3e 841e 193e c71a a13d b972 933d
00000020: df7b 713d 3ac8 093c d23f 913e d92b 4d3e
00000030: 894d 2f3e 6371 6c3e ff2e aebc 364f ee3c
00000040: f534 123e c4ae 20bc a0e2 e0be e77e 1c3e
00000050: 4d08 813d f23c 69bd 0ecc 613e dea1 7bbb
00000060: be98 c43d 5d8f 5b3e 072a 673e 5a67 3cbe
00000070: ec61 70be f63b d5be f11b 25be 13e7 17be
00000080: f7df f1bd 2cbe 58be be26 b9be d278 0cbd
00000090: 5781 38be 3b66 6cbe 5dd5 143e c466 91bd
000000a0: 8ea4 d9be 5812 543d 1b89 f4be cc30 e8be
000000b0: cf0c ffbe 3b7f ae3d 901b 7e3e 91ea 10bd
000000c0: a870 71be 409a 03be d285 ddbd 9dd4 2ebe
000000d0: ad1d 673e 3730 683e 60ec 923d 5c5f 97be
000000e0: 872e 0b3e 21aa 4cbe 1a45 13be a8a9 893e
000000f0: f65e 5bbe c2a7 99be 7b3d cebd ae31 27be
00000100: e4a1 36be 73a1 cdbe 7751 75be 3bff 60be
00000110: bb3c 3c3a 8375 d2bd 4c71 95be 390d dcbd
00000120: 3848 e4bd afdb ab3d e7bf eabd e193 f4bd
00000130: 9e21 3fbd cde4 87bd 3ce5 c03d 1caf 66bd
00000140: 2d88 00be 9909 7ebd 006b cdbc 4f19 2dbd
00000150: aea8 2ebd a2af b7bd edb4 03bd e78b 09bc
00000160: 867d 8bbd ba1c 2abd 5bcb cf3d 0a3b cfbd
00000170: 27d7 d7bc 67a0 aebd c3c1 57bb 7b30 91bd
00000180: e117 b9bd b169 333d e223 c9bd f693 82bd
00000190: 160b a93d 7ffc 9e3d 2330 02bd e1ba 2e3d
000001a0: 9b5f 26bd e958 bf3d 13ef 423c 6d91 07be
000001b0: 50a2 4bbd 16ed b8bd 2f7d 72bd 0ea3 2abc
000001c0: ec29 2cbd 3752 4a3d 642f 583d 67dd ae3d
000001d0: f2f7 a7bd eeb5 c6bd b508 8ebd e10f 9bbd
000001e0: e419 0bbb 8797 9dbc 9a94 8e3d b3a1 e4bb
000001f0: f97c 91bd 9a5b 81bd 5469 653d 83fe 03be
00000200: 385b e3bd 790b b0bd 6d63 75bd 02d1 95bd
00000210: f2be 933d 92a5 463d 4437 043d 7946 39bd
00000220: 2036 a0bd f062 56bd 2220 0cbd 5ee7 9abd
00000230: c538 dfbc 61a6 0fbe 6136 bcbd ec83 c7bd
00000240: 18f4 3cbe 1617 66be b966 6ebe 1ec8 30bd
00000250: 2517 c93d eacf b23d 6577 4b3d 2b35 2ebe
00000260: ee7b 86be af94 98bd 80ca 3fbe 874f e0bd
00000270: 9ec1 f8bd f62f dd3d 75bf 483e 0f91 99bb
00000280: 2074 833c afd5 bebd c579 adbd 83f8 adbe
00000290: 2f2e 91be 5791 1fbd 9662 dbbd 07af 443e
000002a0: 73aa 163e acf6 593e 8c65 c2bd 2f5b 773d
000002b0: 002f 843d 8b56 a2bd a998 20be 1bc5 9dbe
000002c0: 066f cfbe b515 9bbe bcaa 5cbe 45ee bcbd
000002d0: baaf 993d 3c36 a13d 007e 87bd cfad 9f3d
000002e0: 89aa 193d cdf9 073f cd79 cb3e 85b7 163f
000002f0: 23c6 c13e bb38 e33d c0ef dc3d 7dee a93e
00000300: 8be2 8d3e de29 5d3e ea61 683e 922d 2a3e
00000310: 1b10 b3bb 0efa adbc b16a 1f3e e6e2 693d
00000320: 7619 00be e96f 95bd 1a32 91bd 6d9a 043f
00000330: 7ecc 6b3e c245 4c3e a45d 6d3e 167d ab3d
00000340: 199a 903d 9c98 233e 3578 fcbd 0f3c 88be
00000350: 617d 00be d30d 5fbe 95f9 86bd f8ee 053e
00000360: 9846 0e3d 19c5 9fbd 7830 1e3d 6b4c 2dbe
00000370: dbd3 66be e361 cc3d 3858 16be d027 d2bd
00000380: 60dc 9d3e 95f9 6b3d a353 85bc 61ea e1bd
00000390: 90dd 0bbd d778 e73b e0e3 0f3d d86a c9bd
000003a0: 0343 bb3c 8ca7 ac3e 7418 c1bd 4245 6bbe
000003b0: 870b e9bd f928 38be 7170 8abd 2680 a9bd
000003c0: 7bf1 fabd 9f70 56bd 0c9d 883d 16b6 27be
000003d0: 64e0 a9be 3090 a8be 3196 8b3d c78a 6cbe
000003e0: 9674 bbbe aadd 133e 5834 b23c 9672 17be
000003f0: 2c0e 7d3e dd16 2f3e b280 1fbc 2c65 aa3e

layers.3.bias f4 [16]
0.13222903 0.066294506 -0.0061922213 0.026154445 0.01839221 -0.02699103 -0.0307247 0.011973837
-0.04254899 0.1295989 0.028788958 0.057165354 -0.084746376 -0.029237194 -0.0055295704 -0.01766367
00000000: 0c67 073e 6ac5 873d 1ee8 cabb d941 d63c
00000010: 43ab 963c 4b1c ddbc 5eb2 fbbc ea2d 443c
00000020: da47 2ebd 93b5 043e d2d6 eb3c 3826 6a3d
00000030: 828f adbd d782 efbc 6631 b5bb 67b3 90bc

layers.6.weight f4 [32, 16, 3, 3]
-0.06874669 -0.22957496 -0.0753318 0.089544386 0.06600983 0.014585909 0.09087351 0.010101728
-0.16852617 0.06993258 0.051552534 0.06831001 -0.063912414 -0.0669736 0.029121786 0.07703488
-0.003451907 0.04075267 -0.116696514 -0.14063266 0.14354882 0.10050966 0.077087715 -0.080913804
0.14398588 0.097099304 0.055648174 0.1527568 -0.02508757 0.008613001 0.05556901 -0.08173139
-0.13082483 0.053414777 -0.03331319 -0.05589063 0.06329803 -0.026604446 0.08665873 0.038260367
0.0446776 -0.16293481 -0.12040561 0.101275586 0.3233016 0.1000671 0.06336337 0.047104154
-0.14725271 -0.046262965 0.17607202 0.024702514 -0.14707698 -0.14804843 0.24609576 0.13078661
-0.08571842 -0.070411876 -0.00255134 -0.14759088 0.13417464 0.25477883 0.14004955 0.03611219
0.024716757 -0.036083046 -0.38529542 -0.25554448 0.18120547 -0.1815242 -0.066834785 0.13445882
-0.13463102 -0.050281458 0.060562886 0.09910184 -0.071590275 -0.4073392 0.0693586 -0.023808612
0.16775653 -0.13483663 -0.06475454 -0.063780256 -0.39329067 0.08322712 0.19379696 -0.070151776
0.08803964 0.07754255 0.08579428 0.04839959 -0.022618797 0.04200728 0.01967132 -0.13003606
0.08246234 0.25957584 0.30506656 0.15412824 0.10390567 0.031472787 0.10611869 -0.077305004
-0.16260837 0.014038258 -0.09792814 -0.0019349065 0.079384364 -0.034382474 -0.31115043 -0.28269914
-0.2399291 0.09920617 -0.19699393 0.06105757 0.17114128 -0.06528174 -0.1185622 -0.033628568
-0.10234172 -0.014137569 0.20395455 -0.1963432 -0.29684144 -0.032728173 -0.11565326 -0.3378633
-0.12958027 -0.09930405 0.031930935 0.23411414 0.122195646 0.15285929 -0.0059328927 0.19116597
0.2257646 0.08341659 0.116613194 -0.037338067 -0.13932669 -0.14234337 0.021059271 -0.04873441
-0.027902495 -0.13416474 -0.20691115 0.17890546 -0.048113756 -0.11834048 0.11521377 -0.12518947
-0.22276653 0.009751986 -0.0055920435 -0.014876296 -0.0013487439 -0.044312518 0.03329308 0.04657374
-0.0114345625 -0.011936903 0.05117533 0.110392235 -0.0322342 0.010528625 0.07402388 -0.05115247
0.00032627856 0.26540884 0.11595845 -0.044068564 -0.03549324 0.11158422 -0.27821657 -0.1078124
-0.04437805 0.21935952 -0.22944552 -0.134985 -0.109814115 0.084606625 0.2558162 -0.12531786
-0.037647206 0.089083865 0.31625074 0.0066765225 -0.2329654 0.068071745 0.32344294 -0.14595205
-0.106496386 0.22860087 0.11107928 -0.13117474 0.09369441 0.14544031 -0.040619656 0.019969843
0.13076127 0.06894597 -0.16554658 -0.0155605 0.22830133 0.10572649 -0.23766488 -0.28411475
-0.08986723 -0.17168903 -0.56068057 0.10435164 0.11157475 -0.07629907 0.14562729 0.24548711
0.014179284 0.16766168 0.032667037 -0.15623222 0.006914375 -0.02798952 -0.12976748 0.14117269
-0.036990866 0.092721604 -0.09726186 -0.13961026 0.26688212 0.00937733 -0.074673586 0.4612882
0.07381305 -0.040865187 -0.1091153 0.02410561 0.17150117 -0.006405902 -0.14523785 -0.04631359
0.44727525 0.13575199 -0.4070489 0.08301508 0.058617566 0.13853297 -0.13146123 -0.14583077
0.08785433 -0.45859128 -0.18968275 0.019274604 0.048552744 0.18158036 -0.015659789 -0.19260073
00000000: 11cb 8cbd b315 6bbe 8f47 9abd 0c63 b73d
00000010: 2930 873d bdf9 6e3c e41b ba3d b881 253c
00000020: 2092 2cbe d038 8f3d c028 533d 1ee6 8b3d
00000030: 83e4 82bd 7429 89bd d090 ee3c 77c4 9d3d
00000040: 6439 62bb 46ec 263d 95fe eebd 0202 10be
00000050: 76fe 123e 02d8 cd3d 2ae0 9d3d 23b6 a5bd
00000060: 0971 133e 00dc c63d 57ef 633d 476c 1c3e
00000070: 7384 cdbc 8b1d 0d3c 559c 633d c962 a7bd
00000080: f2f6 05be 74c9 5a3d 6973 08bd 93ed 64bd
00000090: 66a2 813d 91f1 d9bc 227a b13d e7b6 1c3d
000000a0: dcff 363d 62d8 26be 3797 f6bd 9369 cf3d
000000b0: ca87 a53e fbef cc3d a8c4 813d 49f0 403d
000000c0: 6ac9 16be 3c7e 3dbd 394c 343e ed5c ca3c
000000d0: 599b 16be 029a 17be 8700 7c3e edec 053e
000000e0: 248d afbd 1a34 90bd 6234 27bb 1022 17be
000000f0: 1465 093e 5f72 823e 2669 0f3e 60ea 133d
00000100: cc7a ca3c d1cb 13bd 7145 c5be bad6 82be
00000110: ed8d 393e 7be1 39be ade0 88bd 93af 093e
00000120: b7dc 09be eef3 4dbd ca10 783d e8f5 ca3d
00000130: ec9d 92bd c38e d0be e20b 8e3d 470a c3bc
00000140: 5ec8 2b3e 9d12 0abe 079e 84bd 399f 82bd
00000150: 655d c9be fb72 aa3d b672 463e bcab 8fbd
00000160: 204e b43d a1ce 9e3d e9b4 af3d a63e 463d
00000170: 0e4b b9bc d30f 2c3d c025 a13c 2c28 05be
00000180: 04e2 a83d 20e7 843e af31 9c3e cbd3 1d3e
00000190: 7fcc d43d 9ce9 003d c154 d93d 1652 9ebd
000001a0: cf82 26be b900 663c 8c8e c8bd b09c fdba
000001b0: 4594 a23d a3d4 0cbd 1c4f 9fbe f1bd 90be
000001c0: f9af 75be 9b2c cb3d c7b8 49be 8117 7a3d
000001d0: a93f 2f3e 6fb2 85bd bdd0 f2bd 1cbe 09bd
000001e0: 8998 d1bd 43a1 67bc 76d9 503e 310e 49be
000001f0: 9afb 97be fa0d 06bd 9edb ecbd 6bfc acbe
00000200: b1b0 04be ec5f cbbd 03ca 023d 9ebb 6f3e
00000210: b641 fa3d 2587 1c3e b668 c2bb 03c1 433e
00000220: d62e 673e 51d6 aa3d e6d2 ee3d cdef 18bd
00000230: a8ab 0ebe 76c2 11be 7e84 ac3c bc9d 47bd
00000240: c693 e4bc 7b62 09be 84e0 53be fe32 373e
00000250: ee12 45bd 7e5c f2bd 32f5 eb3d ab31 00be
00000260: e91c 64be cbc6 1f3c 763d b7bb b5bb 73bc
00000270: 56c8 b0ba 0b81 35bd 535e 083d 1bc4 3e3d
00000280: 0858 3bbc 0093 43bc 399d 513d 5315 e23d
00000290: 0208 04bd 4180 2c3c d599 973d 4185 51bd
000002a0: 5e10 ab39 abe3 873e a07b ed3d 3d81 34bd
000002b0: 5c61 11bd 4486 e43d 6772 8ebe bfcc dcbd
000002c0: c2c5 35bd c89f 603e c4f3 6abe 8239 0abe
000002d0: 39e6 e0bd 3d46 ad3d 57fa 823e 5353 00be
000002e0: f533 1abd 9a71 b63d 9eeb a13e bbc6 da3b
000002f0: 7b8e 6ebe 3369 8b3d 509a a53e 7474 15be
00000300: c71a dabd 5916 6a3e 897d e33d ac52 06be
00000310: dbe2 bf3d 4eee 143e cc60 26bd cc97 a33c
00000320: 48e6 053e 8b33 8d3d 0b85 29be 78f1 7ebc
00000330: d3c7 693e 2187 d83d 6c5e 73be 7d77 91be
00000340: 4f0c b8bd 40cf 2fbe c388 0fbf 50b6 d53d
00000350: 4d81 e43d b042 9cbd 521f 153e f960 7b3e
00000360: 3a50 683c 81af 2b3e dfcd 053d 57fb 1fbe
00000370: fb91 e23b 474a e5bc c4e1 04be 938f 103e
00000380: bc83 17bd d3e4 bd3d 3a31 c7bd fef5 0ebe
00000390: c6a4 883e 5fa3 193c 77ee 98bd f82d ec3e
000003a0: 4c2b 973d 4162 27bd d877 dfbd 2179 c53c
000003b0: 019e 2f3e 9ae8 d1bb 3bb9 14be 52b3 3dbd
000003c0: 4301 e53e 9202 0b3e b768 d0be cf03 aa3d
000003d0: f918 703d 96db 0d3e c69d 06be a954 15be
000003e0: f9ec b33d 7acc eabe 323c 42be c6e5 9d3c
000003f0: 3edf 463d 34f0 393e f548 80bc 2039 45be

layers.6.bias f4 [32]
0.041836362 0.10600764 -0.0026461359 0.14543949 0.086978786 -0.08680323 0.011243815 -0.11389856
0.14629316 0.032823388 -0.16661406 -0.047647893 -0.10198978 -0.082932666 0.0673887 0.034758996
-0.017288739 -0.07227001 -0.0120532075 -0.076203205 0.051731896 0.14984919 -0.09535773 0.045822952
0.055364877 0.12397397 0.15175743 0.004517344 -0.15005754 0.075692594 -0.05486944 -0.018770622
00000000: 9b5c 2b3d 891a d93d cb6a 2dbb 17ee 143e
00000010: ef21 b23d e4c5 b1bd fa37 383c a643 e9bd
00000020: e0cd 153e d171 063d e09c 2abe 702a 43bd
00000030: 05e0 d0bd 9ad8 a9bd 1603 8a3d 735f 0e3d
00000040: 1da1 8dbc 4d02 94bd d17a 45bc 6d10 9cbd
00000050: d3e4 533d 1172 193e ea4a c3bd d9b0 3b3d
00000060: 48c6 623d 11e6 fd3d 4d66 1b3e 3a06 943b
00000070: afa8 19be b804 9b3d c7be 60bd d9c4 99bc

classifier.0.weight f4 [10, 32]
-0.16613227 0.33275267 -0.038834523 -0.14229181 0.014216747 0.2857064 -0.18443349 -0.04496224
0.27473733 0.06930226 -0.43162292 -0.044921853 -0.36510098 0.028425165 0.116253555 0.13878034
-0.04416646 -0.044895414 0.28422228 -0.32966065 -0.2506104 0.22851898 0.007885033 -0.1277001
-0.6039288 0.36706653 -0.108906716 -0.16289403 -0.45763865 0.21769635 -0.15718271 -0.15955389
-0.035384282 -0.3836512 -0.4573596 0.3478683 0.19162789 -0.56374645 -0.22000928 0.016928041
0.27335113 -0.3407404 0.14509255 0.024586672 0.22250178 -0.043197587 -0.090886906 -0.25546238
0.15995952 0.13790178 0.24632692 0.15634693 -0.46692455 -0.18464994 -0.007919971 -0.0667759
-0.3254185 -0.5102325 0.35061714 -0.23420994 0.26841944 0.16964799 -0.2845261 -0.13119055
0.3446627 -0.14310616 -0.11804634 0.03335295 0.404397 -0.4173708 -0.20408769 0.06559448
-0.38162336 0.25117743 -0.2696782 -0.11866227 -0.18840778 -0.488225 0.051847897 0.13128008
-0.08781316 -0.0021742936 0.1129111 -0.1743343 0.040901653 0.41783506 0.05860724 -0.020057147
-0.16923314 -0.07878717 0.027993746 -0.17552857 -0.028671375 0.16056117 0.0538183 -0.19060372
-0.085240595 -0.3363936 -0.7022759 -0.002311136 0.1791082 -0.00020364346 -0.22242083 -0.017133994
-0.33343294 0.1631443 -0.022426464 0.16159607 -0.12718245 -0.17247224 0.0681585 -0.3565422
-0.48387477 0.14656918 0.30573866 -0.30219904 0.11759584 -0.2991842 -0.15263821 0.20562604
-0.13316336 0.24750969 -0.30110678 0.10567494 0.1737787 -0.5232713 -0.23355965 0.35377517
0.20376799 -0.20606096 -0.22352397 -0.15948942 -0.05631899 0.07201094 0.15162559 -0.16825391
-0.20646228 -0.25910386 0.17275815 0.04449066 0.34043244 -0.15572545 -0.24866563 0.27422366
-0.28056374 0.084593065 -0.60523283 0.043765076 -0.17930593 0.031939402 -0.11870353 -0.19209108
0.27387103 0.07569058 0.15333535 -0.17285275 0.020789443 0.3180244 0.29670018 -0.2249522
0.08297103 -0.21759745 0.02433745 -0.25164098 -0.6078507 0.18008006 -0.11711758 -0.15489557
-0.034736224 -0.0638922 0.1336407 -0.14196882 -0.44092524 0.28016344 0.0018697521 0.107514344
-0.35077727 -0.14507617 0.24218148 0.5157637 0.1641774 -0.2020657 0.049577627 0.17872721
-0.14958796 -0.14789379 -0.28042498 0.07201784 0.23510541 -0.09532766 0.12341339 0.012203528
-0.15732625 0.27782002 0.30501527 0.22163124 -0.25558174 0.13634762 -0.1145802 -0.123483665
-0.025159562 -0.4079177 -0.13394463 -0.664021 -0.25928938 -0.076666966 0.12601572 0.09674751
0.2037625 0.105769314 -0.26334974 0.23728885 0.18809684 0.14186312 0.037461817 -0.0554483
-0.3341629 0.008287783 -0.6412233 -0.2554056 -0.0391799 0.16291985 0.27820805 -0.075059064
-0.44167176 -0.5083749 -0.5817254 -0.4153577 0.17649195 0.006469729 0.26793706 -0.16798852
0.22781913 0.114055716 0.0522198 0.1871901 0.15739793 -0.2442819 -0.42266655 0.0397985
0.09969501 -0.100467704 0.0077846893 -0.17589317 0.052920442 0.34662476 -0.13398649 0.03321712
-0.3036248 -0.49032804 0.3278135 -0.2872808 -0.08897926 0.009571137 0.13753088 0.13348733
00000000: 941e 2abe 8f5e aa3e f310 1fbd f2b4 11be
00000010: 5ced 683c 1c48 923e 22dc 3cbe 532a 38bd
00000020: 5faa 8c3e 58ee 8d3d aefd dcbe faff 37bd
00000030: 84ee babe e4db e83c 5816 ee3d 6f1c 0e3e
00000040: e4e7 34bd 41e4 37bd 9585 913e 48c9 a8be
00000050: 0250 80be e100 6a3e 3a30 013c d1c3 02be
00000060: 149b 1abf 25f0 bb3e 7c0a dfbd b1cd 26be
00000070: 9d4f eabe cbeb 5e3e 81f4 20be 1862 23be
00000080: 1cef 10bd ee6d c4be 0a2b eabe cb1b b23e
00000090: 1a3a 443e b051 10bf 1d4a 61be adac 8a3c
000000a0: aef4 8b3e 8775 aebe 2493 143e fd69 c93c
000000b0: 82d7 633e f4ef 30bd ea22 babd f7cb 82be
000000c0: 6ecc 233e 2036 0d3e 203d 7c3e 6919 203e
000000d0: bc10 efbe e014 3dbe c4c2 01bc cec1 88bd
000000e0: 419d a6be 999e 02bf 1784 b33e bbd4 6fbe
000000f0: 466e 893e 34b8 2d3e 68ad 91be d156 06be
00000100: a177 b03e 6c8a 12be 48c2 f1bd 1a9d 083d
00000110: 200d cf3e a0b1 d5be 5dfc 50be 6656 863d
00000120: 2364 c3be 549a 803e 4313 8abe 3405 f3bd
00000130: f8ed 40be a1f8 f9be 765e 543d 496e 063e
00000140: 63d7 b3bd 987e 0ebb ef3d e73d b184 32be
00000150: 7e88 273d 7aee d53e 250e 703d e34e a4bc
00000160: 744b 2dbe 2b5b a1bd 2453 e53c c3bd 33be
00000170: 3be0 eabc 266a 243e 9470 5c3d 9f2d 43be
00000180: 9f92 aebd c83b acbe 5ac8 33bf 6e76 17bb
00000190: 2468 373e 2089 55b9 49c2 63be 975c 8cbc
000001a0: b9b7 aabe 4d0f 273e b4b7 b7bc 7179 253e
000001b0: 1e3c 02be 909c 30be af96 8b3d b38c b6be
000001c0: 6fbe f7be 3b16 163e c789 9c3e d5b9 9abe
000001d0: 16d6 f03d ac2e 99be 314d 1cbe a28f 523e
000001e0: fa5b 08be 2e73 7d3e ab2a 9abe 1a6c d83d
000001f0: 0bf3 313e 1cf5 05bf 432a 6fbe 0522 b53e
00000200: 8ea8 503e a501 53be 78e3 64be 3251 23be
00000210: beae 66bd 797a 933d bd43 1b3e c14a 2cbe
00000220: d96a 53be 43a9 84be 83e7 303e d73b 363d
00000230: 294d ae3e 7e76 1fbe 34a2 7ebe 0b67 8c3e
00000240: 0da6 8fbe 213f ad3d 8af0 1abf 0243 333d
00000250: f99b 37be e4d2 023d d61a f3bd 86b3 44be
00000260: d338 8c3e aa03 9b3d f103 1d3e 5000 31be
00000270: 9f4e aa3c 18d4 a23e 16e9 973e df59 66be
00000280: b7ec a93d ded1 5ebe 555f c73c 16d7 80be
00000290: 1a9c 1bbf e866 383e 57db efbd f29c 1ebe
000002a0: 9247 0ebd ead9 82bd 1cd9 083e 4660 11be
000002b0: f4c0 e1be 9571 8f3e 7812 f53a 7b30 dc3d
000002c0: 1499 b3be d98e 14be 6cfe 773e 1709 043f
000002d0: 1f1e 283e 50ea 4ebe e911 4b3d 4404 373e
000002e0: 962d 19be 7871 17be dd93 8fbe 177e 933d
000002f0: 79bf 703e 263b c3bd 29c0 fc3d 4ef1 473c
00000300: 221a 21be 6d3e 8e3e f62a 9c3e 4df3 623e
00000310: 9cdb 82be b69e 0b3e 06a9 eabd 01e5 fcbd
00000320: 6d1b cebc 97da d0be c828 09be 48fd 29bf
00000330: 94c1 84be 9203 9dbd 440a 013e 8f23 c63d
00000340: 1ea7 503e 959d d83d c7d5 86be d9fb 723e
00000350: 759c 403e 9144 113e 9071 193d c21d 63bd
00000360: 6617 abbe 7bc9 073c 3627 24bf 86c4 82be
00000370: 1a7b 20bd 76d4 263e 4971 8e3e 91b8 99bd
00000380: cd22 e2be dc24 02bf f5eb 14bf c4a9 d4be
00000390: 4eba 343e 0500 d43b 0c2f 893e 2f05 2cbe
000003a0: 6b49 693e 0b96 e93d 6ee4 553d c3ae 3f3e
000003b0: ec2c 213e 0925 7abe c067 d8be c003 233d
000003c0: e62c cc3d 03c2 cdbd b516 ff3b 571d 34be
000003d0: 1bc3 583d cd78 b13e c133 09be ad0e 083d
000003e0: b674 9bbe 470c fbbe 2cd7 a73e 7816 93be
000003f0: c23a b6bd 42d0 1c3c e5d4 0c3e e7b0 083e

classifier.0.bias f4 [10]
0.14796662 -0.104042746 -0.21713436 0.117554426 -0.0016416254 -0.060421694 0.14654328 -0.14582084
0.2900424 -0.21141015
00000000: 9084 173e 5d14 d5bd 7858 5ebe 60c0 f03d
00000010: cf2b d7ba bd7c 77bd 710f 163e 0f52 15be
00000020: 7080 943e e77b 58be

exp_avg f4 [8, 1, 3, 3]
0.006469255 0.007307568 0.0024713182 0.009236606 0.008657271 0.00077014504 0.009544453 0.0051026754
-0.00028638175 0.0031143134 0.0047061653 -2.8140259e-05 0.004165038 0.004405017 -0.0023874422 0.0049745133
0.0006888274 -0.0035202606 -0.0019464083 -0.0033051858 -0.0034337298 -0.0030580051 -0.00579421 -0.0026900037
-0.004423929 -0.008015017 -0.004521148 -0.00032998106 0.00072186155 0.0021807835 0.0015323487 0.0004378658
0.0011974799 0.0033911692 0.0030004994 0.0018996813 -0.011827858 -0.000271137 0.01751468 -0.016441174
0.0049281265 0.02463579 -0.011771471 0.0120600015 0.01682407 -0.013935707 -0.0127700735 -0.0030658268
-0.013700463 -0.01292947 -0.00013857077 -0.0076029906 -0.011639065 -0.002337642 -0.0055211075 -0.0066252197
-0.0009429889 -0.011634639 -0.0067456095 0.0034163294 -0.012559682 0.00040914616 0.002127868 -0.000113860224
0.0034118057 0.00541025 0.0034240128 0.0048616505 0.0035528988 0.0049296347 0.0050498433 0.006141489
00000000: 0bfc d33b 5374 ef3b d7f5 213b 2255 173c
00000010: 3ad7 0d3c 8fe3 493a 5660 1c3c 5834 a73b
00000020: 8225 96b9 8219 4c3b 2d36 9a3b bf0e ecb7
00000030: df7a 883b f657 903b a276 1cbb 3e01 a33b
00000040: 6d92 343a 2cb4 66bb a01e ffba d19b 58bb
00000050: 6d08 61bb d068 48bb 5bdd bdbb c64a 30bb
00000060: 9bf6 90bb 6b51 03bc 2326 94bb 4f01 adb9
00000070: 4f3b 3d3a 7aeb 0e3b 17d9 c83a 5a91 e539
00000080: c2f4 9c3a 613e 5e3b 07a4 443b bafe f83a
00000090: a2c9 41bc 6427 8eb9 f27a 8f3c a4af 86bc
000000a0: 1f7c a13b ffd0 c93c 21dd 40bc 5097 453c
000000b0: a2d2 893c 9752 64bc 9239 51bc 0aec 48bb
000000c0: e877 60bc 21d6 53bc 4f4d 11b9 8222 f9bb
000000d0: c7b1 3ebc 2033 19bb 68ea b4bb 5f18 d9bb
000000e0: ea32 77ba 379f 3ebc 460a ddbb 7fe4 5f3b
000000f0: 20c7 4dbc ab82 d639 b373 0b3b 3ec8 eeb8
00000100: 9a98 5f3b 7748 b13b 6765 603b 7b4e 9f3b
00000110: c0d7 683b c688 a13b 2879 a53b 8b3e c93b

exp_avg_sq f4 [8, 1, 3, 3]
0.00027093416 0.00053087284 0.0004325801 0.0005476992 0.00086393306 0.0005830384 0.0005200124 0.00066459307
0.0004143016 0.00012838583 0.00010902962 0.00013086046 0.00015444374 0.00013738847 0.00015169977 0.00015161259
0.00018157481 0.00018465225 0.00062156183 0.0005015505 0.00067380484 0.00056091056 0.00050234224 0.0012832086
0.0005930698 0.0006912819 0.0013830449 0.0007534983 0.0009296354 0.0009237032 0.00095544447 0.0012219003
0.0009103864 0.0008052654 0.0009052751 0.0007069504 0.002018577 0.0019314873 0.0015405302 0.0016376992
0.0008883521 0.0013478985 0.001284839 0.0016124314 0.0018555864 0.0018186242 0.0014490937 0.0015558566
0.0014014897 0.0009672424 0.001106244 0.0012210581 0.0011054958 0.0010860136 0.00088551024 0.0010377417
0.0011724895 0.00091339636 0.00075570936 0.0008497109 0.00089308375 0.0007412454 0.0007324719 0.00023171348
0.00027056012 0.00033879542 0.00029350255 0.0003705531 0.00041441765 0.00029204536 0.00033743243 0.00036808845
00000000: 2b0c 8e39 462a 0b3a ebcb e239 7993 0f3a
00000010: 9179 623a 0bd7 183a 7151 083a 1638 2e3a
00000020: 9f36 d939 4f9f 0639 d5a6 e438 9637 0939
00000030: 2df2 2139 f00f 1039 9911 1f39 32fa 1e39
00000040: 1e65 3e39 369f 4139 4ff0 223a 7c7a 033a
00000050: 47a2 303a 120a 133a 9eaf 033a 5631 a83a
00000060: 3e78 1b3a 2537 353a 4947 b53a 6a86 453a
00000070: c7b2 733a ac24 723a cb76 7a3a 2c28 a03a
00000080: ffa6 6e3a 7218 533a fc4f 6d3a a352 393a
00000090: 1a4a 043b f629 fd3a 9eeb c93a 11a8 d63a
000000a0: 4de0 683a f8ab b03a 0b68 a83a 3858 d33a
000000b0: 2637 f33a e75e ee3a 84ef bd3a e2ed cb3a
000000c0: 31b2 b73a 8a8e 7d3a 64ff 903a e90b a03a
000000d0: 49e6 903a 9258 8e3a 9621 683a d504 883a
000000e0: 38ae 993a fe70 6f3a cc1a 463a 22bf 5e3a
000000f0: d61d 6a3a 2350 423a 5b03 403a 1df8 7239
00000100: f7d9 8d39 5aa0 b139 3fe1 9939 cc46 c239
00000110: 3246 d939 aa1d 9939 6ae9 b039 fffb c039

exp_avg f4 [8]
0.008575488 -0.0023367845 -0.005396912 0.0009723973 -0.008169132 -0.015286429 0.0016172086 -0.0064457804
00000000: 3480 0c3c bd24 19bb 94d8 b0bb 7ae8 7e3a
00000010: d3d7 05bc ee73 7abc 84f8 d33a 2037 d3bb

exp_avg_sq f4 [8]
0.0011908294 0.00018345485 0.0024085185 0.0015614311 0.0050957687 0.00520917 0.0022884056 0.0005758467
00000000: 9b15 9c3a c95d 4039 3cd8 1d3b efa8 cc3a
00000010: 68fa a63b afb1 aa3b 13f9 153b 6bf4 163a

exp_avg f4 [16, 8, 3, 3]
-0.0022855585 0.0045651873 0.00341546 0.0025729998 0.005547152 0.000948225 0.0035972088 0.0045013083
-0.00018627249 -0.0010755964 0.005323589 0.0038266815 0.0047531407 0.00566957 0.0014140268 0.005152271
0.00438216 0.00078029104 -0.0020050837 0.003920254 0.008980713 -5.552019e-05 0.007603173 0.0086966595
0.002654385 0.009671141 0.008217989 0.007520592 0.002071224 0.003176784 0.0029064873 0.0007688091
0.0043030903 0.0018674632 0.00082934345 0.005012395 0.00095817435 0.00096665067 0.0028529225 0.0009836406
0.0012207931 0.002129154 0.0029109293 0.0031780272 0.0009513882 0.00045834194 0.0021850148 0.0005872725
0.0009720729 0.0031567228 0.0017828046 0.0008466716 0.0036041306 0.0038796302 0.00030570556 0.0015736346
0.0020428023 0.0018750982 0.00069885503 0.0010262387 0.0041022277 0.0026462197 0.00027835736 0.004132932
0.0017877109 0.0035609032 0.0009071238 0.0020473434 0.0046232487 0.0011945686 0.0023150842 0.0046379725
0.0 0.0 0.0 6e-45 6e-45 6e-45 6e-45 6e-45
6e-45 0.0 0.0 0.0 6e-45 6e-45 6e-45 6e-45
6e-45 6e-45 6e-45 0.0 0.0 6e-45 0.0 6e-45
6e-45 6e-45 6e-45 6e-45 6e-45 6e-45 6e-45 6e-45
6e-45 6e-45 6e-45 6e-45 6e-45 0.0 0.0 0.0
0.0 0.0 6e-45 6e-45 6e-45 6e-45 0.0 0.0
6e-45 6e-45 6e-45 6e-45 6e-45 6e-45 6e-45 6e-45
6e-45 0.0 0.0 0.0 6e-45 6e-45 6e-45 6e-45
6e-45 6e-45 6e-45 6e-45 6e-45 6e-45 6e-45 6e-45
-0.0055332514 -0.009589862 -0.0078431675 -0.0075423867 -0.017305972 -0.007474941 -0.01733541 -0.018369274
-0.0055738077 -0.0059160334 -0.008352584 -0.007079944 -0.006907219 -0.01499744 -0.0063093915 -0.01668303
-0.016981848 -0.0056135776 -0.002535667 -0.0048654918 -0.016175352 -0.0034305581 -0.011240019 -0.023958333
-0.007989401 -0.021780876 -0.019447453 -0.008524444 -0.0053445767 -0.0071474286 -0.00892999 -0.001509026
-0.0081085125 -0.0019226074 -0.0014294545 -0.010438858 -0.005436832 -0.0039773886 -0.0010457287 -0.0009232706
-0.0022206348 -0.0047293454 -0.0050222147 -0.0066452473 -0.005110802 -0.0040597036 -0.0045528864 -0.0077993628
-0.00532442 -0.0069600516 -0.009324173 -0.0049903514 -0.006244957 -0.006396666 -0.006973068 -0.005175906
-0.0012441368 -0.00056438794 -0.0023362283 -0.001279759 -0.0055354317 -0.0030606778 -0.00028372975 -0.0062351245
-0.0044855257 -0.007647458 -0.0056399084 -0.0019580657 -0.009222143 0.0004107388 -0.0031051945 -0.010632399
0.003700778 0.010953375 0.013943096 0.00541981 0.012831944 0.015812805 0.0035097587 0.01074366
0.014549391 0.0033814155 0.010295684 0.012250289 0.005836125 0.013189698 0.013760829 0.005210347
0.010712621 0.013050431 0.002188506 0.003830437 0.015051383 0.006506459 0.006820117 0.01805919
0.009434138 0.0067437934 0.014765834 0.014165282 0.008260639 0.005031957 0.012181995 0.00460886
0.0014638982 0.012806015 0.006859234 0.0040115104 0.0005810136 0.0017496241 0.0012372338 0.003263161
00000000: 4fc9 15bb 9197 953b e9d5 5f3b c69f 283b
00000010: e2c4 b53b 4d92 783a 26bf 6b3b b67f 933b
00000020: 2452 43b9 07fb 8cba 8071 ae3b 10c9 7a3b
00000030: 3cc0 9b3b cdc7 b93b de56 b93a 62d4 a83b
00000040: 3998 8f3b 728c 4c3a b967 03bb 7975 803b
00000050: d723 133c 5ade 68b8 0a24 f93b 6f7c 0e3c
00000060: 31f5 2d3b b573 1e3c bea4 063c 4c6f f63b
00000070: 5fbd 073b 9731 503b c47a 3e3b e889 493a
00000080: f000 8d3b abc5 f43a 4c68 593a 043f a43b
00000090: fe2d 7b3a d466 7d3a 19f8 3a3b 80ed 803a
000000a0: 0503 a03a 4789 0b3b 4ac5 3e3b 7346 503b
000000b0: 9566 793a 9d4d f039 7732 0f3b 31f3 193a
000000c0: b5d2 7e3a 05e1 4e3b ffac e93a 2bf3 5d3a
000000d0: 4733 6c3b 6541 7e3b 1b47 a039 6a42 ce3a
000000e0: 89e0 053b dbc5 f53a 5e33 373a db82 863a
000000f0: fb6b 863b 336c 2d3b 7ef0 9139 8c6d 873b
00000100: a051 ea3a 0b5e 693b 0ccc 6d3a b92c 063b
00000110: 9f7e 973b 1293 9c3a abb8 173b 22fa 973b
00000120: 0000 0000 0000 0000 0000 0000 0400 0000
00000130: 0400 0000 0400 0000 0400 0000 0400 0000
00000140: 0400 0000 0000 0000 0000 0000 0000 0000
00000150: 0400 0000 0400 0000 0400 0000 0400 0000
00000160: 0400 0000 0400 0000 0400 0000 0000 0000
00000170: 0000 0000 0400 0000 0000 0000 0400 0000
00000180: 0400 0000 0400 0000 0400 0000 0400 0000
00000190: 0400 0000 0400 0000 0400 0000 0400 0000
000001a0: 0400 0000 0400 0000 0400 0000 0400 0000
000001b0: 0400 0000 0000 0000 0000 0000 0000 0000
000001c0: 0000 0000 0000 0000 0400 0000 0400 0000
000001d0: 0400 0000 0400 0000 0000 0000 0000 0000
000001e0: 0400 0000 0400 0000 0400 0000 0400 0000
000001f0: 0400 0000 0400 0000 0400 0000 0400 0000
00000200: 0400 0000 0000 0000 0000 0000 0000 0000
00000210: 0400 0000 0400 0000 0400 0000 0400 0000
00000220: 0400 0000 0400 0000 0400 0000 0400 0000
00000230: 0400 0000 0400 0000 0400 0000 0400 0000
00000240: 4750 b5bb cc1e 1dbc a180 00bc 2026 f7bb
00000250: 41c5 8dbc 5af0 f4bb fd02 8ebc 297b 96bc
00000260: 7da4 b6bb 49db c1bb 47d9 08bc e0fe e7bb
00000270: f455 e2bb d3b7 75bc 03bf cebb daaa 88bc
00000280: 841d 8bbc 1af2 b7bb 6f2d 26bb b46e 9fbb
00000290: 2c82 84bc 37d3 60bb 0f28 38bc 4444 c4bc
000002a0: fae5 02bc cf6d b2bc 4450 9fbc 1caa 0bbc
000002b0: 8f21 afbb fa34 eabb 184f 12bc 83ca c5ba
000002c0: 91d9 04bc 0000 fcba 895c bbba be07 2bbc
000002d0: 7427 b2bb c154 82bb d510 89ba a407 72ba
000002e0: 1288 11bb a0f8 9abb 6491 a4bb 60c0 d9bb
000002f0: 8478 a7bb 4307 85bb 6130 95bb cc91 ffbb
00000300: 7978 aebb 2511 e4bb 6bc4 18bc 1a86 a3bb
00000310: 7fa2 ccbb 209b d1bb 567e e4bb a59a a9bb
00000320: 4e12 a3ba 6ff3 13ba 681b 19bb 96bd a7ba
00000330: 9162 b5bb a795 48bb 90c1 94b9 0450 ccbb
00000340: 51fb 92bb 8797 fabb fbce b8bb e452 00bb
00000350: 7918 17bc 6e58 d739 8580 4bbb 8333 2ebc
00000360: c088 723b c975 333c 9571 643c a998 b13b
00000370: 133d 523c db89 813c fb03 663b 2d06 303c
00000380: 9260 6e3c bd9a 5d3b 3baf 283c 70b5 483c
00000390: f73c bf3b 9a19 583c 1a75 613c 8fbb aa3b
000003a0: fd83 2f3c 7ad1 553c 0a6d 0f3b 1208 7b3b
000003b0: 139a 763c 2234 d53b 4a7b df3b def0 933c
000003c0: a591 1a3c 0afb dc3b 66ec 713c 8015 683c
000003d0: a257 073c 1de3 a43b fe96 473c eb05 973b
000003e0: 46e0 bf3a 52d0 513c 6dc3 e03b fd72 833b
000003f0: 2a4f 183a a553 e53a ad2a a23a c2da 553b

exp_avg_sq f4 [16, 8, 3, 3]
0.00025824734 0.00055493065 0.00043431693 0.00034956902 0.0006108125 0.00026974542 0.0004275752 0.00052365835
0.00021477554 0.00022241622 0.00044521064 0.000340097 0.0003279255 0.00050478155 0.00021797723 0.00038879045
0.00041123707 0.00014963423 4.67665e-05 0.00027187416 0.0006817935 7.650531e-05 0.0005558476 0.0008172078
0.0001411004 0.0007130062 0.00060490804 0.0001837135 4.1915067e-05 7.3055904e-05 0.00010698888 1.2589888e-05
0.00013596307 8.3532366e-05 3.3416818e-05 0.00021777429 4.4506385e-05 3.5540346e-05 7.978907e-05 7.825019e-05
8.119584e-05 0.00012132558 6.575234e-05 7.696428e-05 6.2026586e-05 6.9492286e-05 0.00013346327 0.000167797
3.8026177e-05 8.9196474e-05 0.00012249406 4.4378867e-05 0.00013150394 0.00015746402 7.785006e-05 5.7729532e-05
6.0099785e-05 0.00012490449 8.9188776e-05 7.427189e-05 0.00012815364 6.802709e-05 3.238095e-05 7.988324e-05
2.3120454e-05 7.6308446e-05 4.440106e-05 2.6577129e-05 0.00014397182 3.7213504e-05 5.7125264e-05 0.00016930784
0.0 0.0 0.0 7.383315e-20 7.537498e-19 1.4590733e-19 4.8919656e-18 4.218915e-18
6.897406e-19 0.0 0.0 0.0 9.0853964e-20 2.143251e-18 3.2486746e-19 1.18521565e-17
1.0405582e-17 1.934936e-18 1.2871117e-17 0.0 0.0 4.031523e-21 0.0 7.267153e-20
1.9376537e-17 1.7125262e-17 4.094793e-18 1.2021264e-17 1.5386527e-17 1.5386527e-17 9.973483e-18 6.4750602e-18
1.3419061e-17 3.7273234e-19 6.5502473e-19 7.84666e-21 2.1653444e-18 0.0 0.0 0.0
0.0 0.0 4.4432234e-18 1.9295242e-17 4.4688586e-18 2.3660074e-21 0.0 0.0
4.600023e-19 8.447042e-19 5.882714e-18 6.7260587e-18 1.1031878e-17 1.7842718e-18 5.65484e-20 9.607476e-23
6.568568e-24 0.0 0.0 0.0 7.700656e-18 1.492927e-17 5.0417634e-18 3.202891e-17
2.4965586e-17 2.487185e-17 2.1750155e-17 3.1727687e-17 4.645866e-17 6.9945927e-19 8.1989227e-19 9.892579e-19
0.00024412894 0.0004643021 0.00072991895 0.00067249185 0.001307285 0.0010005377 0.0011137667 0.00095061294
0.00032649253 0.0002097524 0.0003702909 0.00058483036 0.00053749635 0.0011283063 0.00085809425 0.001093589
0.00096762454 0.00034000108 0.0002497177 0.00019392186 0.0006096771 0.0001781724 0.00055120816 0.0015402873
0.0006278848 0.0017472524 0.0014568336 0.000881287 0.00065250014 0.00045768768 0.0004814953 0.00013634817
0.0002061145 0.00023388251 0.00019632585 0.00053522456 8.564225e-05 5.0424907e-05 3.707116e-05 9.006993e-05
0.00016302506 0.00040345849 0.00042936835 0.00072699494 0.00057657674 0.00015143075 0.00022639008 0.00038059225
0.00032138385 0.0004249193 0.00045816848 0.00016668504 0.00019300246 0.00018590796 0.00010888442 8.821539e-05
5.6207227e-05 0.00013237442 0.00021938012 0.00026581078 0.00048249343 0.00054229493 0.00038956426 0.00048100436
0.00032251887 0.0002642506 0.00021408046 6.7475325e-05 0.0002271217 0.0001388254 0.00024173016 0.00046598745
0.00022107964 0.00048085666 0.0007582608 0.00031641597 0.00059227354 0.00092164794 0.0002924692 0.00064329035
0.0009223741 0.00020291956 0.00042831653 0.00058305066 0.00031404736 0.00056261383 0.00070831587 0.00028299188
0.0006083549 0.00074389396 0.00011798192 0.0001746978 0.00056097173 0.00025894988 0.0002917526 0.00083343114
0.00033541504 0.00030116492 0.0009381041 0.0005689236 0.0002667136 0.00012044099 0.00043451076 0.00017781113
5.8052403e-05 0.00045819432 0.0002279564 0.00013185949 9.07557e-05 0.00011184528 9.6173346e-05 0.00017710621
00000000: 5f65 8739 c478 113a 08b5 e339 5c46 b739
00000010: ef1e 203a 9e6c 8d39 2c2c e039 1e46 093a
00000020: 5f35 6139 6638 6939 296b e939 0c4f b239
00000030: 6aed ab39 5153 043a d190 6439 92d6 cb39
00000040: 4e9b d739 22e7 1c39 2627 4438 558a 8e39
00000050: 63ba 323a 7a71 a038 4db6 113a e339 563a
00000060: 5af4 1339 09e9 3a3a b192 1e3a 38a3 4039
00000070: f6cd 2f38 9735 9938 385f e038 2839 5337
00000080: 4f91 0e39 192e af38 0929 0c38 575a 6439
00000090: 5eac 3a38 2811 1538 6e54 a738 401a a438
000000a0: af47 aa38 2d70 fe38 85e4 8938 e267 a138
000000b0: 4514 8238 63bc 9138 46f2 0b39 aaf2 2f39
000000c0: 4c7e 1f38 fe0e bb38 c071 0039 7223 3a38
000000d0: 52e4 0939 ed1c 2539 6f43 a338 9d22 7238
000000e0: a713 7c38 cbf8 0239 dc0a bb38 6bc2 9b38
000000f0: fb60 0639 c4a9 8e38 c8d0 0738 fd86 a738
00000100: ccf2 c137 c907 a038 463b 3a38 f3f1 de37
00000110: 24f7 1639 b215 1c38 c999 6f38 3a88 3139
00000120: 0000 0000 0000 0000 0000 0000 6755 ae1f
00000130: ba77 5e21 c941 2c20 4f7b b422 87a6 9b22
00000140: 5493 4b21 0000 0000 0000 0000 0000 0000
00000150: da85 d61f de24 1e22 95c4 bf20 3aa2 5a23
00000160: f9f2 3f23 e8c5 0e22 226e 6d23 0000 0000
00000170: 0000 0000 7f4e 981d 0000 0000 3f97 ab1f
00000180: 8eb7 b223 e2f3 9d23 3a12 9722 d0c0 5d23
00000190: 69ea 8d23 69ea 8d23 71fa 3723 37e3 ee22
000001a0: b989 7723 b805 dc20 4554 4121 1f38 141e
000001b0: 33c6 1f22 0000 0000 0000 0000 0000 0000
000001c0: 0000 0000 0000 0000 0fed a322 9af7 b123
000001d0: 2ddf a422 3dc5 321d 0000 0000 0000 0000
000001e0: cbc4 0721 0b50 7921 aa08 d922 d425 f822
000001f0: 9280 4b23 f1a7 0322 6985 851f 654b e81a
00000200: f21b fe18 0000 0000 0000 0000 0000 0000
00000210: 520d 0e23 beb2 8923 1c02 ba22 10b5 1324
00000220: 5344 e623 ff66 e523 1a9c c823 7151 1224
00000230: b440 5624 a671 4e21 4ffd 7121 1bfd 9121
00000240: ddfc 7f39 936d f339 0858 3f3a 2a4a 303a
00000250: 3559 ab3a 7924 833a cffb 913a 8e32 793a
00000260: 162d ab39 fbf0 5b39 9a23 c239 4d4f 193a
00000270: c5e6 0c3a ade3 933a bbf1 603a c256 8f3a
00000280: 2fa8 7d3a 2c42 b239 8bec 8239 8157 4b39
00000290: bdd2 1f3a cad3 3a39 f47e 103a 77e3 c93a
000002a0: a398 243a 1004 e53a 39f3 be3a 2b06 673a
000002b0: 8b0c 2b3a cdf5 ef39 3571 fc39 aff8 0e39
000002c0: 7120 5839 5c3e 7539 d2dc 4d39 504e 0c3a
000002d0: d59a b338 557f 5338 db7c 1b38 ede3 bc38
000002e0: b5f1 2a39 4887 d339 d81c e139 ce93 3e3a
000002f0: 6925 173a 62c9 1e39 2063 6d39 3a8a c739
00000300: 697f a839 b4c7 de39 5536 f039 2dc8 2e39
00000310: b460 4a39 4af0 4239 e158 e438 4700 b938
00000320: 0dc0 6b38 fdcd 0a39 6709 6639 855c 8b39
00000330: 2cf7 fc39 cc28 0e3a 6e3e cc39 502f fc39
00000340: c017 a939 1d8b 8a39 c97a 6039 8a81 8d38
00000350: 8427 6e39 a991 1139 f278 7d39 c74f f439
00000360: 9dd1 6739 7d1b fc39 05c6 463a a2e4 a539
00000370: ce42 1b3a bf9a 713a 8d56 9939 7ca2 283a
00000380: 7acb 713a cec6 5439 ac8f e039 ded7 183a
00000390: b9a6 a439 607c 133a 46ae 393a 875e 9439
000003a0: 027a 1f3a e101 433a 106d f738 152f 3739
000003b0: 2d0e 133a aac3 8739 5ff6 9839 9e7a 5a3a
000003c0: a5da af39 ace5 9d39 1aeb 753a d123 153a
000003d0: b2d5 8b39 4495 fc38 0ccf e339 d072 3a39
000003e0: 4b7d 7338 cd39 f039 9507 6f39 c343 0a39
000003f0: 1854 be38 7a8e ea38 acb0 c938 96b5 3939

exp_avg f4 [16]
0.0016263811 6e-45 -0.0045359395 0.0050717066 0.000919028 0.00025900512 -0.003021669 0.0011783434
-0.0016957764 0.0013314618 -0.003256869 -0.0021341494 0.002590323 -0.00048088506 0.0015470596 0.0029401535
00000000: 4b2c d53a 0400 0000 38a2 94bb 8f30 a63b
00000010: edea 703a 14cb 8739 3207 46bb a572 9a3a
00000020: d044 deba 7284 ae3a 3271 55bb 16dd 0bbb
00000030: 69c2 293b 4d1f fcb9 b5c6 ca3a 97af 403b

exp_avg_sq f4 [16]
4.850316e-05 2.2353825e-17 0.00013199312 7.989547e-05 9.3831215e-05 3.9443617e-05 8.686425e-05 0.00010979659
8.260195e-05 8.230134e-05 0.000121819845 9.830315e-05 9.820156e-05 0.00027668194 0.00014126446 0.00012995901
00000000: df6f 4b38 7a2d ce23 a267 0a39 8e8d a738
00000010: 40c7 c438 4370 2538 e42a b638 9842 e638
00000020: 963a ad38 3299 ac38 8879 ff38 1a28 ce38
00000030: 90f1 cd38 9f0f 9139 6420 1439 9b45 0839

exp_avg f4 [32, 16, 3, 3]
0.0028165178 0.0015562824 -0.000963267 0.003625666 0.0025809295 -0.00024973982 0.002296303 0.0013872341
-0.0013155518 0.0 6e-45 0.0 0.0 0.0 0.0 0.0
6e-45 6e-45 -0.0042160475 -0.0013573956 0.0018491922 0.0003076746 0.0005580581 0.0006881787
-0.0006365702 -0.0012877496 -0.00080159766 -0.0042619733 -0.00518427 -0.0036974165 0.0010580047 0.00097104185
0.0012651248 0.0015750962 -0.00035616622 -0.0025165954 -0.005881295 -0.004536418 0.001811526 0.00013670068
0.00086883444 0.0027713901 0.0013995566 0.0005186196 -0.0018123904 -0.0074827205 -0.0060366904 -0.0018252517
-0.005295816 -0.0019891984 0.0011035432 0.0015851156 0.0009118095 0.0015626804 0.00044993567 -0.0005868436
-0.0011160104 0.002831698 0.0013662034 -0.00030210262 0.0033847038 0.0014925898 -6.6777204e-05 -0.00482685
-0.0038786898 -0.00072965416 -0.0008583893 -0.0017516946 -8.919452e-05 -0.00033202657 -0.0004230746 -0.00021596153
0.0030143247 0.006418504 0.007436863 -0.00024807968 -5.7644593e-05 -0.0010869107 -0.00025085968 0.0005440916
0.00040012127 0.0018774027 0.004785946 0.0035173078 0.0022951914 0.0048438446 0.006051371 0.0025987735
0.0033810912 0.0076319505 0.0016020159 0.0028399741 0.0027467795 0.0047831093 0.006110017 0.002346619
0.0062727807 0.0070867767 0.0029519096 0.0049579027 0.005084926 0.005311581 0.0014561694 0.0014086018
0.0027258992 0.00089290016 0.001120906 0.0047878707 -0.004527558 -0.0025857287 -0.0005851382 -0.000585136
0.0010984091 0.0026129342 0.00093366875 0.0009945504 0.0007977531 -0.0009277174 -0.0010781576 3.0286561e-05
0.001771142 -0.0006697304 -0.00084109046 -0.0010060037 -0.0014882287 -0.0013869979 0.0058287876 0.0044630733
0.0012894935 0.006608109 0.00841611 0.0061182776 0.0041805576 0.008869978 0.0062651294 -0.008568661
-0.006809584 -0.0010684383 -0.005656374 -0.0054692887 -0.0014502323 -0.0005990536 -0.0025712869 -0.0021379725
-0.0070983297 -0.0035210175 -0.00033744727 -0.009881435 -0.0051140585 -0.00060971914 -0.007538506 -0.0039298134
-0.00047951294 0.0 -6e-45 -6e-45 0.0 -6e-45 0.0 0.0
-6e-45 0.0 -0.006629378 -0.0074083805 -0.0032515835 -0.0036676263 -0.003772622 -0.001932877
-0.003949023 -0.0030685505 -0.0008137308 -0.004552673 -0.005080378 -0.0042511686 -0.00506261 -0.0045503196
-0.004572771 -0.007327581 -0.00042672086 -0.0020827902 -0.0029423304 -0.008776684 -0.010146705 -0.0030076022
-0.005097259 -0.006963571 -0.0077325394 -0.0034010164 -0.00048227585 -0.0028178263 -0.009051483 -0.004952282
-0.003032922 -0.009077 -0.0054034945 -0.0033642207 -0.00716091 -0.0050283736 -0.0037544887 -0.0015578961
-0.00057678437 -0.0071861935 -0.0027443643 -0.0011342819 -0.009902655 -0.0045258556 -0.00072077755 -0.00022198488
-0.0003941993 -0.0008676092 0.00020772617 -0.0004534311 -0.0011457334 -0.0033355032 -0.00094180915 -0.00094655534
-0.011359673 -0.0128571205 -0.0080760475 -0.0049079866 -0.003958342 -0.002722841 -0.00325424 -0.0049852547
-0.0021625294 -0.0019599001 -0.008948434 -0.0060138903 -0.004313201 -0.01164309 -0.009258412 -0.0049988586
-0.01116954 -0.011309338 -0.008560377 -0.014798547 -0.010192609 -0.010624781 -0.0118120825 -0.005811572
-0.014124714 -0.013123528 -0.0022155915 -0.0053138267 -0.007760515 -0.0096504195 -0.002152528 -0.0050162915
-0.0075245197 -0.0014503025 -0.0050000097 -0.008612781 -0.0016050582 -0.005665535 -0.0031449907 -0.0023479022
00000000: 5495 383b 2cfc cb3a c183 7cba 959c 6d3b
00000010: d024 293b 83ef 82b9 927d 163b dad3 b53a
00000020: 986e acba 0000 0000 0400 0000 0000 0000
00000030: 0000 0000 0000 0000 0000 0000 0000 0000
00000040: 0400 0000 0400 0000 c526 8abb a3ea b1ba
00000050: 9860 f23a 634f a139 a54a 123a e466 343a
00000060: 81df 26ba b5c9 a8ba 4f22 52ba 06a8 8bbb
00000070: cfe0 a9bb 5b50 72bb bfac 8a3a 848d 7e3a
00000080: 8bd2 a53a 7573 ce3a d2bb bab9 77ed 24bb
00000090: e1b7 c0bb 3ba6 94bb ba70 ed3a 4f57 0f39
000000a0: 7ec2 633a 36a0 353b 5471 b73a f9f3 073a
000000b0: bb8d edba 9c31 f5bb 6ecf c5bb 493d efba
000000c0: 8688 adbb 365d 02bb c4a4 903a a7c3 cf3a
000000d0: 8006 6f3a dad2 cc3a 58e5 eb39 68d6 19ba
000000e0: 1847 92ba 0294 393b 2e12 b33a 8763 9eb9
000000f0: e8d1 5d3b 01a3 c33a bd0a 8cb8 8d2a 9ebb
00000100: 9e31 7ebb 4346 3fba 8805 61ba 1e99 e5ba
00000110: f10d bbb8 da13 aeb9 1dd0 ddb9 bb73 62b9
00000120: fa8b 453b 5052 d23b eeb0 f33b b110 82b9
00000130: 69c7 71b8 ac76 8eba d185 83b9 5fa1 0e3a
00000140: 5ec7 d139 2e13 f63a 6dd3 9c3b a282 663b
00000150: ec6a 163b 1db9 9e3b 944a c63b 2f50 2a3b
00000160: 4c95 5d3b 7115 fa3b bcfa d13a dc1e 3a3b
00000170: 5003 343b a1bb 9c3b 8a36 c83b bcc9 193b
00000180: e68b cd3b 3138 e83b d374 413b e775 a23b
00000190: 739f a63b c50c ae3b f0dc be3a d5a0 b83a
000001a0: 00a5 323b 8411 6a3a 5deb 923a 92e3 9c3b
000001b0: e95b 94bb 5475 29bb f663 19ba d063 19ba
000001c0: 7ef8 8f3a c33d 2b3b 73c1 743a 935b 823a
000001d0: 4e20 513a 1032 73ba f750 8dba e50f fe37
000001e0: aa25 e83a d990 2fba a07c 5cba e2db 83ba
000001f0: ab10 c3ba edcb b5ba 6aff be3b f93e 923b
00000200: 3904 a93a d688 d83b b9e3 093c d57b c83b
00000210: 0ffd 883b 6253 113c b74b cd3b 9263 0cbc
00000220: ee22 dfbb d70a 8cba 1b59 b9bb b837 b3bb
00000230: b915 beba ce09 1dba 0983 28bb 3a1d 0cbb
00000240: 1b99 e8bb dfc0 66bb 68eb b0b9 bee5 21bc
00000250: d593 a7bb 8fd5 1fba 9205 f7bb aac5 80bb
00000260: 2367 fbb9 0000 0000 0400 0080 0400 0080
00000270: 0000 0000 0400 0080 0000 0000 0000 0000
00000280: 0400 0080 0000 0000 413b d9bb 00c2 f2bb
00000290: 8518 55bb 8f5c 70bb 183e 77bb 9758 fdba
000002a0: ce66 81bb bc19 49bb 8d50 55ba 972e 95bb
000002b0: 4d79 a6bb 634d 8bbb 40e4 a5bb d91a 95bb
000002c0: 2fd7 95bb 341c f0bb 81b9 dfb9 6c7f 08bb
000002d0: 1dd4 40bb 15cc 0fbc 5e3e 26bc 311b 45bb
000002e0: e806 a7bb ab2e e4bb 3e61 fdbb 96e3 5ebb
000002f0: f8d9 fcb9 48ab 38bb ac4c 14bc c146 a2bb
00000300: fdc3 46bb b3b7 14bc cc0f b1bb 427a 5cbb
00000310: 11a6 eabb 0ec5 a4bb de0d 76bb 5232 ccba
00000320: 5833 17ba 297a ebbb cbda 33bb 2fac 94ba
00000330: bf3e 22bc a14d 94bb 90f2 3cba 9dc4 68b9
00000340: 89ac ceb9 4570 63ba 12d1 5939 7eba edb9
00000350: 6f2c 96ba 7598 5abb bee3 76ba 4122 78ba
00000360: ec1d 3abc aca6 52bc 6651 04bc 2dd3 a0bb
00000370: fbb4 81bb b171 32bb 1645 55bb 595b a3bb
00000380: 39b9 0dbb ab71 00bb 749c 12bc 2b10 c5bb
00000390: c155 8dbb a9c2 3ebc 98b0 17bc 77cd a3bb
000003a0: 7200 37bc cd4a 39bc d340 0cbc 9b75 72bc
000003b0: e7fe 26bc 9013 2ebc 7787 41bc 006f bebb
000003c0: 586b 67bc 1104 57bc 7533 11bb 9c1f aebb
000003d0: eb4b febb cb1c 1ebc 6d11 0dbb b45f a4bb
000003e0: 3f90 f6bb 1418 beba 1fd7 a3bb 9f1c 0dbc
000003f0: d160 d2ba f4a5 b9bb 301c 4ebb 43df 19bb
